program(1.0)
[buildInfo = dict<tensor<string, []>, tensor<string, []>>({{"coremlc-component-MIL", "3510.2.1"}, {"coremlc-version", "3500.32.1"}, {"coremltools-component-torch", "2.8.0"}, {"coremltools-source-dialect", "TorchScript"}, {"coremltools-version", "9.0"}})]
{
    func main<ios15>(tensor<fp32, [1, 3, 640, 640]> image) {
            tensor<fp32, []> image__scaled___y_0 = const()[name = tensor<string, []>("image__scaled___y_0"), val = tensor<fp32, []>(0x1.010102p-8)];
            tensor<fp32, [1, 3, 640, 640]> image__scaled__ = mul(x = image, y = image__scaled___y_0)[name = tensor<string, []>("image__scaled__")];
            tensor<int32, []> var_9 = const()[name = tensor<string, []>("op_9"), val = tensor<int32, []>(-1)];
            tensor<int32, []> var_21 = const()[name = tensor<string, []>("op_21"), val = tensor<int32, []>(1)];
            tensor<string, []> input_1_pad_type_0 = const()[name = tensor<string, []>("input_1_pad_type_0"), val = tensor<string, []>("custom")];
            tensor<int32, [4]> input_1_pad_0 = const()[name = tensor<string, []>("input_1_pad_0"), val = tensor<int32, [4]>([1, 1, 1, 1])];
            tensor<int32, [2]> input_1_strides_0 = const()[name = tensor<string, []>("input_1_strides_0"), val = tensor<int32, [2]>([2, 2])];
            tensor<int32, [2]> input_1_dilations_0 = const()[name = tensor<string, []>("input_1_dilations_0"), val = tensor<int32, [2]>([1, 1])];
            tensor<int32, []> input_1_groups_0 = const()[name = tensor<string, []>("input_1_groups_0"), val = tensor<int32, []>(1)];
            tensor<string, []> image_to_fp16_dtype_0 = const()[name = tensor<string, []>("image_to_fp16_dtype_0"), val = tensor<string, []>("fp16")];
            tensor<fp16, [16, 3, 3, 3]> model_model_0_conv_weight_to_fp16 = const()[name = tensor<string, []>("model_model_0_conv_weight_to_fp16"), val = tensor<fp16, [16, 3, 3, 3]>(BLOBFILE(path = tensor<string, []>("@model_path/weights/weight.bin"), offset = tensor<uint64, []>(64)))];
            tensor<fp16, [16]> model_model_0_conv_bias_to_fp16 = const()[name = tensor<string, []>("model_model_0_conv_bias_to_fp16"), val = tensor<fp16, [16]>(BLOBFILE(path = tensor<string, []>("@model_path/weights/weight.bin"), offset = tensor<uint64, []>(1024)))];
            tensor<fp16, [1, 3, 640, 640]> image_to_fp16 = cast(dtype = image_to_fp16_dtype_0, x = image__scaled__)[name = tensor<string, []>("cast_15")];
            tensor<fp16, [1, 16, 320, 320]> input_1_cast_fp16 = conv(bias = model_model_0_conv_bias_to_fp16, dilations = input_1_dilations_0, groups = input_1_groups_0, pad = input_1_pad_0, pad_type = input_1_pad_type_0, strides = input_1_strides_0, weight = model_model_0_conv_weight_to_fp16, x = image_to_fp16)[name = tensor<string, []>("input_1_cast_fp16")];
            tensor<fp16, [1, 16, 320, 320]> input_3_cast_fp16 = silu(x = input_1_cast_fp16)[name = tensor<string, []>("input_3_cast_fp16")];
            tensor<string, []> input_5_pad_type_0 = const()[name = tensor<string, []>("input_5_pad_type_0"), val = tensor<string, []>("custom")];
            tensor<int32, [4]> input_5_pad_0 = const()[name = tensor<string, []>("input_5_pad_0"), val = tensor<int32, [4]>([1, 1, 1, 1])];
            tensor<int32, [2]> input_5_strides_0 = const()[name = tensor<string, []>("input_5_strides_0"), val = tensor<int32, [2]>([2, 2])];
            tensor<int32, [2]> input_5_dilations_0 = const()[name = tensor<string, []>("input_5_dilations_0"), val = tensor<int32, [2]>([1, 1])];
            tensor<int32, []> input_5_groups_0 = const()[name = tensor<string, []>("input_5_groups_0"), val = tensor<int32, []>(1)];
            tensor<fp16, [32, 16, 3, 3]> model_model_1_conv_weight_to_fp16 = const()[name = tensor<string, []>("model_model_1_conv_weight_to_fp16"), val = tensor<fp16, [32, 16, 3, 3]>(BLOBFILE(path = tensor<string, []>("@model_path/weights/weight.bin"), offset = tensor<uint64, []>(1152)))];
            tensor<fp16, [32]> model_model_1_conv_bias_to_fp16 = const()[name = tensor<string, []>("model_model_1_conv_bias_to_fp16"), val = tensor<fp16, [32]>(BLOBFILE(path = tensor<string, []>("@model_path/weights/weight.bin"), offset = tensor<uint64, []>(10432)))];
            tensor<fp16, [1, 32, 160, 160]> input_5_cast_fp16 = conv(bias = model_model_1_conv_bias_to_fp16, dilations = input_5_dilations_0, groups = input_5_groups_0, pad = input_5_pad_0, pad_type = input_5_pad_type_0, strides = input_5_strides_0, weight = model_model_1_conv_weight_to_fp16, x = input_3_cast_fp16)[name = tensor<string, []>("input_5_cast_fp16")];
            tensor<fp16, [1, 32, 160, 160]> input_7_cast_fp16 = silu(x = input_5_cast_fp16)[name = tensor<string, []>("input_7_cast_fp16")];
            tensor<string, []> input_9_pad_type_0 = const()[name = tensor<string, []>("input_9_pad_type_0"), val = tensor<string, []>("valid")];
            tensor<int32, [2]> input_9_strides_0 = const()[name = tensor<string, []>("input_9_strides_0"), val = tensor<int32, [2]>([1, 1])];
            tensor<int32, [4]> input_9_pad_0 = const()[name = tensor<string, []>("input_9_pad_0"), val = tensor<int32, [4]>([0, 0, 0, 0])];
            tensor<int32, [2]> input_9_dilations_0 = const()[name = tensor<string, []>("input_9_dilations_0"), val = tensor<int32, [2]>([1, 1])];
            tensor<int32, []> input_9_groups_0 = const()[name = tensor<string, []>("input_9_groups_0"), val = tensor<int32, []>(1)];
            tensor<fp16, [32, 32, 1, 1]> model_model_2_cv1_conv_weight_to_fp16 = const()[name = tensor<string, []>("model_model_2_cv1_conv_weight_to_fp16"), val = tensor<fp16, [32, 32, 1, 1]>(BLOBFILE(path = tensor<string, []>("@model_path/weights/weight.bin"), offset = tensor<uint64, []>(10560)))];
            tensor<fp16, [32]> model_model_2_cv1_conv_bias_to_fp16 = const()[name = tensor<string, []>("model_model_2_cv1_conv_bias_to_fp16"), val = tensor<fp16, [32]>(BLOBFILE(path = tensor<string, []>("@model_path/weights/weight.bin"), offset = tensor<uint64, []>(12672)))];
            tensor<fp16, [1, 32, 160, 160]> input_9_cast_fp16 = conv(bias = model_model_2_cv1_conv_bias_to_fp16, dilations = input_9_dilations_0, groups = input_9_groups_0, pad = input_9_pad_0, pad_type = input_9_pad_type_0, strides = input_9_strides_0, weight = model_model_2_cv1_conv_weight_to_fp16, x = input_7_cast_fp16)[name = tensor<string, []>("input_9_cast_fp16")];
            tensor<fp16, [1, 32, 160, 160]> var_89_cast_fp16 = silu(x = input_9_cast_fp16)[name = tensor<string, []>("op_89_cast_fp16")];
            tensor<int32, [2]> var_90 = const()[name = tensor<string, []>("op_90"), val = tensor<int32, [2]>([16, 16])];
            tensor<int32, []> var_91_axis_0 = const()[name = tensor<string, []>("op_91_axis_0"), val = tensor<int32, []>(1)];
            tensor<fp16, [1, 16, 160, 160]> var_91_cast_fp16_0, tensor<fp16, [1, 16, 160, 160]> var_91_cast_fp16_1 = split(axis = var_91_axis_0, split_sizes = var_90, x = var_89_cast_fp16)[name = tensor<string, []>("op_91_cast_fp16")];
            tensor<string, []> input_13_pad_type_0 = const()[name = tensor<string, []>("input_13_pad_type_0"), val = tensor<string, []>("custom")];
            tensor<int32, [4]> input_13_pad_0 = const()[name = tensor<string, []>("input_13_pad_0"), val = tensor<int32, [4]>([1, 1, 1, 1])];
            tensor<int32, [2]> input_13_strides_0 = const()[name = tensor<string, []>("input_13_strides_0"), val = tensor<int32, [2]>([1, 1])];
            tensor<int32, [2]> input_13_dilations_0 = const()[name = tensor<string, []>("input_13_dilations_0"), val = tensor<int32, [2]>([1, 1])];
            tensor<int32, []> input_13_groups_0 = const()[name = tensor<string, []>("input_13_groups_0"), val = tensor<int32, []>(1)];
            tensor<fp16, [8, 16, 3, 3]> model_model_2_m_0_cv1_conv_weight_to_fp16 = const()[name = tensor<string, []>("model_model_2_m_0_cv1_conv_weight_to_fp16"), val = tensor<fp16, [8, 16, 3, 3]>(BLOBFILE(path = tensor<string, []>("@model_path/weights/weight.bin"), offset = tensor<uint64, []>(12800)))];
            tensor<fp16, [8]> model_model_2_m_0_cv1_conv_bias_to_fp16 = const()[name = tensor<string, []>("model_model_2_m_0_cv1_conv_bias_to_fp16"), val = tensor<fp16, [8]>([0x1.924p-1, 0x1.684p+0, -0x1.4b8p-2, -0x1.2fp-2, 0x1.6p+0, 0x1.2fcp+0, 0x1.014p+0, -0x1.4f8p-1])];
            tensor<fp16, [1, 8, 160, 160]> input_13_cast_fp16 = conv(bias = model_model_2_m_0_cv1_conv_bias_to_fp16, dilations = input_13_dilations_0, groups = input_13_groups_0, pad = input_13_pad_0, pad_type = input_13_pad_type_0, strides = input_13_strides_0, weight = model_model_2_m_0_cv1_conv_weight_to_fp16, x = var_91_cast_fp16_1)[name = tensor<string, []>("input_13_cast_fp16")];
            tensor<fp16, [1, 8, 160, 160]> input_15_cast_fp16 = silu(x = input_13_cast_fp16)[name = tensor<string, []>("input_15_cast_fp16")];
            tensor<string, []> input_17_pad_type_0 = const()[name = tensor<string, []>("input_17_pad_type_0"), val = tensor<string, []>("custom")];
            tensor<int32, [4]> input_17_pad_0 = const()[name = tensor<string, []>("input_17_pad_0"), val = tensor<int32, [4]>([1, 1, 1, 1])];
            tensor<int32, [2]> input_17_strides_0 = const()[name = tensor<string, []>("input_17_strides_0"), val = tensor<int32, [2]>([1, 1])];
            tensor<int32, [2]> input_17_dilations_0 = const()[name = tensor<string, []>("input_17_dilations_0"), val = tensor<int32, [2]>([1, 1])];
            tensor<int32, []> input_17_groups_0 = const()[name = tensor<string, []>("input_17_groups_0"), val = tensor<int32, []>(1)];
            tensor<fp16, [16, 8, 3, 3]> model_model_2_m_0_cv2_conv_weight_to_fp16 = const()[name = tensor<string, []>("model_model_2_m_0_cv2_conv_weight_to_fp16"), val = tensor<fp16, [16, 8, 3, 3]>(BLOBFILE(path = tensor<string, []>("@model_path/weights/weight.bin"), offset = tensor<uint64, []>(15168)))];
            tensor<fp16, [16]> model_model_2_m_0_cv2_conv_bias_to_fp16 = const()[name = tensor<string, []>("model_model_2_m_0_cv2_conv_bias_to_fp16"), val = tensor<fp16, [16]>(BLOBFILE(path = tensor<string, []>("@model_path/weights/weight.bin"), offset = tensor<uint64, []>(17536)))];
            tensor<fp16, [1, 16, 160, 160]> input_17_cast_fp16 = conv(bias = model_model_2_m_0_cv2_conv_bias_to_fp16, dilations = input_17_dilations_0, groups = input_17_groups_0, pad = input_17_pad_0, pad_type = input_17_pad_type_0, strides = input_17_strides_0, weight = model_model_2_m_0_cv2_conv_weight_to_fp16, x = input_15_cast_fp16)[name = tensor<string, []>("input_17_cast_fp16")];
            tensor<fp16, [1, 16, 160, 160]> var_113_cast_fp16 = silu(x = input_17_cast_fp16)[name = tensor<string, []>("op_113_cast_fp16")];
            tensor<fp16, [1, 16, 160, 160]> var_114_cast_fp16 = add(x = var_91_cast_fp16_1, y = var_113_cast_fp16)[name = tensor<string, []>("op_114_cast_fp16")];
            tensor<bool, []> input_19_interleave_0 = const()[name = tensor<string, []>("input_19_interleave_0"), val = tensor<bool, []>(false)];
            tensor<fp16, [1, 48, 160, 160]> input_19_cast_fp16 = concat(axis = var_21, interleave = input_19_interleave_0, values = (var_91_cast_fp16_0, var_91_cast_fp16_1, var_114_cast_fp16))[name = tensor<string, []>("input_19_cast_fp16")];
            tensor<string, []> input_21_pad_type_0 = const()[name = tensor<string, []>("input_21_pad_type_0"), val = tensor<string, []>("valid")];
            tensor<int32, [2]> input_21_strides_0 = const()[name = tensor<string, []>("input_21_strides_0"), val = tensor<int32, [2]>([1, 1])];
            tensor<int32, [4]> input_21_pad_0 = const()[name = tensor<string, []>("input_21_pad_0"), val = tensor<int32, [4]>([0, 0, 0, 0])];
            tensor<int32, [2]> input_21_dilations_0 = const()[name = tensor<string, []>("input_21_dilations_0"), val = tensor<int32, [2]>([1, 1])];
            tensor<int32, []> input_21_groups_0 = const()[name = tensor<string, []>("input_21_groups_0"), val = tensor<int32, []>(1)];
            tensor<fp16, [64, 48, 1, 1]> model_model_2_cv2_conv_weight_to_fp16 = const()[name = tensor<string, []>("model_model_2_cv2_conv_weight_to_fp16"), val = tensor<fp16, [64, 48, 1, 1]>(BLOBFILE(path = tensor<string, []>("@model_path/weights/weight.bin"), offset = tensor<uint64, []>(17664)))];
            tensor<fp16, [64]> model_model_2_cv2_conv_bias_to_fp16 = const()[name = tensor<string, []>("model_model_2_cv2_conv_bias_to_fp16"), val = tensor<fp16, [64]>(BLOBFILE(path = tensor<string, []>("@model_path/weights/weight.bin"), offset = tensor<uint64, []>(23872)))];
            tensor<fp16, [1, 64, 160, 160]> input_21_cast_fp16 = conv(bias = model_model_2_cv2_conv_bias_to_fp16, dilations = input_21_dilations_0, groups = input_21_groups_0, pad = input_21_pad_0, pad_type = input_21_pad_type_0, strides = input_21_strides_0, weight = model_model_2_cv2_conv_weight_to_fp16, x = input_19_cast_fp16)[name = tensor<string, []>("input_21_cast_fp16")];
            tensor<fp16, [1, 64, 160, 160]> input_23_cast_fp16 = silu(x = input_21_cast_fp16)[name = tensor<string, []>("input_23_cast_fp16")];
            tensor<string, []> input_25_pad_type_0 = const()[name = tensor<string, []>("input_25_pad_type_0"), val = tensor<string, []>("custom")];
            tensor<int32, [4]> input_25_pad_0 = const()[name = tensor<string, []>("input_25_pad_0"), val = tensor<int32, [4]>([1, 1, 1, 1])];
            tensor<int32, [2]> input_25_strides_0 = const()[name = tensor<string, []>("input_25_strides_0"), val = tensor<int32, [2]>([2, 2])];
            tensor<int32, [2]> input_25_dilations_0 = const()[name = tensor<string, []>("input_25_dilations_0"), val = tensor<int32, [2]>([1, 1])];
            tensor<int32, []> input_25_groups_0 = const()[name = tensor<string, []>("input_25_groups_0"), val = tensor<int32, []>(1)];
            tensor<fp16, [64, 64, 3, 3]> model_model_3_conv_weight_to_fp16 = const()[name = tensor<string, []>("model_model_3_conv_weight_to_fp16"), val = tensor<fp16, [64, 64, 3, 3]>(BLOBFILE(path = tensor<string, []>("@model_path/weights/weight.bin"), offset = tensor<uint64, []>(24064)))];
            tensor<fp16, [64]> model_model_3_conv_bias_to_fp16 = const()[name = tensor<string, []>("model_model_3_conv_bias_to_fp16"), val = tensor<fp16, [64]>(BLOBFILE(path = tensor<string, []>("@model_path/weights/weight.bin"), offset = tensor<uint64, []>(97856)))];
            tensor<fp16, [1, 64, 80, 80]> input_25_cast_fp16 = conv(bias = model_model_3_conv_bias_to_fp16, dilations = input_25_dilations_0, groups = input_25_groups_0, pad = input_25_pad_0, pad_type = input_25_pad_type_0, strides = input_25_strides_0, weight = model_model_3_conv_weight_to_fp16, x = input_23_cast_fp16)[name = tensor<string, []>("input_25_cast_fp16")];
            tensor<fp16, [1, 64, 80, 80]> input_27_cast_fp16 = silu(x = input_25_cast_fp16)[name = tensor<string, []>("input_27_cast_fp16")];
            tensor<string, []> input_29_pad_type_0 = const()[name = tensor<string, []>("input_29_pad_type_0"), val = tensor<string, []>("valid")];
            tensor<int32, [2]> input_29_strides_0 = const()[name = tensor<string, []>("input_29_strides_0"), val = tensor<int32, [2]>([1, 1])];
            tensor<int32, [4]> input_29_pad_0 = const()[name = tensor<string, []>("input_29_pad_0"), val = tensor<int32, [4]>([0, 0, 0, 0])];
            tensor<int32, [2]> input_29_dilations_0 = const()[name = tensor<string, []>("input_29_dilations_0"), val = tensor<int32, [2]>([1, 1])];
            tensor<int32, []> input_29_groups_0 = const()[name = tensor<string, []>("input_29_groups_0"), val = tensor<int32, []>(1)];
            tensor<fp16, [64, 64, 1, 1]> model_model_4_cv1_conv_weight_to_fp16 = const()[name = tensor<string, []>("model_model_4_cv1_conv_weight_to_fp16"), val = tensor<fp16, [64, 64, 1, 1]>(BLOBFILE(path = tensor<string, []>("@model_path/weights/weight.bin"), offset = tensor<uint64, []>(98048)))];
            tensor<fp16, [64]> model_model_4_cv1_conv_bias_to_fp16 = const()[name = tensor<string, []>("model_model_4_cv1_conv_bias_to_fp16"), val = tensor<fp16, [64]>(BLOBFILE(path = tensor<string, []>("@model_path/weights/weight.bin"), offset = tensor<uint64, []>(106304)))];
            tensor<fp16, [1, 64, 80, 80]> input_29_cast_fp16 = conv(bias = model_model_4_cv1_conv_bias_to_fp16, dilations = input_29_dilations_0, groups = input_29_groups_0, pad = input_29_pad_0, pad_type = input_29_pad_type_0, strides = input_29_strides_0, weight = model_model_4_cv1_conv_weight_to_fp16, x = input_27_cast_fp16)[name = tensor<string, []>("input_29_cast_fp16")];
            tensor<fp16, [1, 64, 80, 80]> var_147_cast_fp16 = silu(x = input_29_cast_fp16)[name = tensor<string, []>("op_147_cast_fp16")];
            tensor<int32, [2]> var_148 = const()[name = tensor<string, []>("op_148"), val = tensor<int32, [2]>([32, 32])];
            tensor<int32, []> var_149_axis_0 = const()[name = tensor<string, []>("op_149_axis_0"), val = tensor<int32, []>(1)];
            tensor<fp16, [1, 32, 80, 80]> var_149_cast_fp16_0, tensor<fp16, [1, 32, 80, 80]> var_149_cast_fp16_1 = split(axis = var_149_axis_0, split_sizes = var_148, x = var_147_cast_fp16)[name = tensor<string, []>("op_149_cast_fp16")];
            tensor<string, []> input_33_pad_type_0 = const()[name = tensor<string, []>("input_33_pad_type_0"), val = tensor<string, []>("custom")];
            tensor<int32, [4]> input_33_pad_0 = const()[name = tensor<string, []>("input_33_pad_0"), val = tensor<int32, [4]>([1, 1, 1, 1])];
            tensor<int32, [2]> input_33_strides_0 = const()[name = tensor<string, []>("input_33_strides_0"), val = tensor<int32, [2]>([1, 1])];
            tensor<int32, [2]> input_33_dilations_0 = const()[name = tensor<string, []>("input_33_dilations_0"), val = tensor<int32, [2]>([1, 1])];
            tensor<int32, []> input_33_groups_0 = const()[name = tensor<string, []>("input_33_groups_0"), val = tensor<int32, []>(1)];
            tensor<fp16, [16, 32, 3, 3]> model_model_4_m_0_cv1_conv_weight_to_fp16 = const()[name = tensor<string, []>("model_model_4_m_0_cv1_conv_weight_to_fp16"), val = tensor<fp16, [16, 32, 3, 3]>(BLOBFILE(path = tensor<string, []>("@model_path/weights/weight.bin"), offset = tensor<uint64, []>(106496)))];
            tensor<fp16, [16]> model_model_4_m_0_cv1_conv_bias_to_fp16 = const()[name = tensor<string, []>("model_model_4_m_0_cv1_conv_bias_to_fp16"), val = tensor<fp16, [16]>(BLOBFILE(path = tensor<string, []>("@model_path/weights/weight.bin"), offset = tensor<uint64, []>(115776)))];
            tensor<fp16, [1, 16, 80, 80]> input_33_cast_fp16 = conv(bias = model_model_4_m_0_cv1_conv_bias_to_fp16, dilations = input_33_dilations_0, groups = input_33_groups_0, pad = input_33_pad_0, pad_type = input_33_pad_type_0, strides = input_33_strides_0, weight = model_model_4_m_0_cv1_conv_weight_to_fp16, x = var_149_cast_fp16_1)[name = tensor<string, []>("input_33_cast_fp16")];
            tensor<fp16, [1, 16, 80, 80]> input_35_cast_fp16 = silu(x = input_33_cast_fp16)[name = tensor<string, []>("input_35_cast_fp16")];
            tensor<string, []> input_37_pad_type_0 = const()[name = tensor<string, []>("input_37_pad_type_0"), val = tensor<string, []>("custom")];
            tensor<int32, [4]> input_37_pad_0 = const()[name = tensor<string, []>("input_37_pad_0"), val = tensor<int32, [4]>([1, 1, 1, 1])];
            tensor<int32, [2]> input_37_strides_0 = const()[name = tensor<string, []>("input_37_strides_0"), val = tensor<int32, [2]>([1, 1])];
            tensor<int32, [2]> input_37_dilations_0 = const()[name = tensor<string, []>("input_37_dilations_0"), val = tensor<int32, [2]>([1, 1])];
            tensor<int32, []> input_37_groups_0 = const()[name = tensor<string, []>("input_37_groups_0"), val = tensor<int32, []>(1)];
            tensor<fp16, [32, 16, 3, 3]> model_model_4_m_0_cv2_conv_weight_to_fp16 = const()[name = tensor<string, []>("model_model_4_m_0_cv2_conv_weight_to_fp16"), val = tensor<fp16, [32, 16, 3, 3]>(BLOBFILE(path = tensor<string, []>("@model_path/weights/weight.bin"), offset = tensor<uint64, []>(115904)))];
            tensor<fp16, [32]> model_model_4_m_0_cv2_conv_bias_to_fp16 = const()[name = tensor<string, []>("model_model_4_m_0_cv2_conv_bias_to_fp16"), val = tensor<fp16, [32]>(BLOBFILE(path = tensor<string, []>("@model_path/weights/weight.bin"), offset = tensor<uint64, []>(125184)))];
            tensor<fp16, [1, 32, 80, 80]> input_37_cast_fp16 = conv(bias = model_model_4_m_0_cv2_conv_bias_to_fp16, dilations = input_37_dilations_0, groups = input_37_groups_0, pad = input_37_pad_0, pad_type = input_37_pad_type_0, strides = input_37_strides_0, weight = model_model_4_m_0_cv2_conv_weight_to_fp16, x = input_35_cast_fp16)[name = tensor<string, []>("input_37_cast_fp16")];
            tensor<fp16, [1, 32, 80, 80]> var_171_cast_fp16 = silu(x = input_37_cast_fp16)[name = tensor<string, []>("op_171_cast_fp16")];
            tensor<fp16, [1, 32, 80, 80]> var_172_cast_fp16 = add(x = var_149_cast_fp16_1, y = var_171_cast_fp16)[name = tensor<string, []>("op_172_cast_fp16")];
            tensor<bool, []> input_39_interleave_0 = const()[name = tensor<string, []>("input_39_interleave_0"), val = tensor<bool, []>(false)];
            tensor<fp16, [1, 96, 80, 80]> input_39_cast_fp16 = concat(axis = var_21, interleave = input_39_interleave_0, values = (var_149_cast_fp16_0, var_149_cast_fp16_1, var_172_cast_fp16))[name = tensor<string, []>("input_39_cast_fp16")];
            tensor<string, []> input_41_pad_type_0 = const()[name = tensor<string, []>("input_41_pad_type_0"), val = tensor<string, []>("valid")];
            tensor<int32, [2]> input_41_strides_0 = const()[name = tensor<string, []>("input_41_strides_0"), val = tensor<int32, [2]>([1, 1])];
            tensor<int32, [4]> input_41_pad_0 = const()[name = tensor<string, []>("input_41_pad_0"), val = tensor<int32, [4]>([0, 0, 0, 0])];
            tensor<int32, [2]> input_41_dilations_0 = const()[name = tensor<string, []>("input_41_dilations_0"), val = tensor<int32, [2]>([1, 1])];
            tensor<int32, []> input_41_groups_0 = const()[name = tensor<string, []>("input_41_groups_0"), val = tensor<int32, []>(1)];
            tensor<fp16, [128, 96, 1, 1]> model_model_4_cv2_conv_weight_to_fp16 = const()[name = tensor<string, []>("model_model_4_cv2_conv_weight_to_fp16"), val = tensor<fp16, [128, 96, 1, 1]>(BLOBFILE(path = tensor<string, []>("@model_path/weights/weight.bin"), offset = tensor<uint64, []>(125312)))];
            tensor<fp16, [128]> model_model_4_cv2_conv_bias_to_fp16 = const()[name = tensor<string, []>("model_model_4_cv2_conv_bias_to_fp16"), val = tensor<fp16, [128]>(BLOBFILE(path = tensor<string, []>("@model_path/weights/weight.bin"), offset = tensor<uint64, []>(149952)))];
            tensor<fp16, [1, 128, 80, 80]> input_41_cast_fp16 = conv(bias = model_model_4_cv2_conv_bias_to_fp16, dilations = input_41_dilations_0, groups = input_41_groups_0, pad = input_41_pad_0, pad_type = input_41_pad_type_0, strides = input_41_strides_0, weight = model_model_4_cv2_conv_weight_to_fp16, x = input_39_cast_fp16)[name = tensor<string, []>("input_41_cast_fp16")];
            tensor<fp16, [1, 128, 80, 80]> input_43_cast_fp16 = silu(x = input_41_cast_fp16)[name = tensor<string, []>("input_43_cast_fp16")];
            tensor<string, []> input_45_pad_type_0 = const()[name = tensor<string, []>("input_45_pad_type_0"), val = tensor<string, []>("custom")];
            tensor<int32, [4]> input_45_pad_0 = const()[name = tensor<string, []>("input_45_pad_0"), val = tensor<int32, [4]>([1, 1, 1, 1])];
            tensor<int32, [2]> input_45_strides_0 = const()[name = tensor<string, []>("input_45_strides_0"), val = tensor<int32, [2]>([2, 2])];
            tensor<int32, [2]> input_45_dilations_0 = const()[name = tensor<string, []>("input_45_dilations_0"), val = tensor<int32, [2]>([1, 1])];
            tensor<int32, []> input_45_groups_0 = const()[name = tensor<string, []>("input_45_groups_0"), val = tensor<int32, []>(1)];
            tensor<fp16, [128, 128, 3, 3]> model_model_5_conv_weight_to_fp16 = const()[name = tensor<string, []>("model_model_5_conv_weight_to_fp16"), val = tensor<fp16, [128, 128, 3, 3]>(BLOBFILE(path = tensor<string, []>("@model_path/weights/weight.bin"), offset = tensor<uint64, []>(150272)))];
            tensor<fp16, [128]> model_model_5_conv_bias_to_fp16 = const()[name = tensor<string, []>("model_model_5_conv_bias_to_fp16"), val = tensor<fp16, [128]>(BLOBFILE(path = tensor<string, []>("@model_path/weights/weight.bin"), offset = tensor<uint64, []>(445248)))];
            tensor<fp16, [1, 128, 40, 40]> input_45_cast_fp16 = conv(bias = model_model_5_conv_bias_to_fp16, dilations = input_45_dilations_0, groups = input_45_groups_0, pad = input_45_pad_0, pad_type = input_45_pad_type_0, strides = input_45_strides_0, weight = model_model_5_conv_weight_to_fp16, x = input_43_cast_fp16)[name = tensor<string, []>("input_45_cast_fp16")];
            tensor<fp16, [1, 128, 40, 40]> input_47_cast_fp16 = silu(x = input_45_cast_fp16)[name = tensor<string, []>("input_47_cast_fp16")];
            tensor<string, []> input_49_pad_type_0 = const()[name = tensor<string, []>("input_49_pad_type_0"), val = tensor<string, []>("valid")];
            tensor<int32, [2]> input_49_strides_0 = const()[name = tensor<string, []>("input_49_strides_0"), val = tensor<int32, [2]>([1, 1])];
            tensor<int32, [4]> input_49_pad_0 = const()[name = tensor<string, []>("input_49_pad_0"), val = tensor<int32, [4]>([0, 0, 0, 0])];
            tensor<int32, [2]> input_49_dilations_0 = const()[name = tensor<string, []>("input_49_dilations_0"), val = tensor<int32, [2]>([1, 1])];
            tensor<int32, []> input_49_groups_0 = const()[name = tensor<string, []>("input_49_groups_0"), val = tensor<int32, []>(1)];
            tensor<fp16, [128, 128, 1, 1]> model_model_6_cv1_conv_weight_to_fp16 = const()[name = tensor<string, []>("model_model_6_cv1_conv_weight_to_fp16"), val = tensor<fp16, [128, 128, 1, 1]>(BLOBFILE(path = tensor<string, []>("@model_path/weights/weight.bin"), offset = tensor<uint64, []>(445568)))];
            tensor<fp16, [128]> model_model_6_cv1_conv_bias_to_fp16 = const()[name = tensor<string, []>("model_model_6_cv1_conv_bias_to_fp16"), val = tensor<fp16, [128]>(BLOBFILE(path = tensor<string, []>("@model_path/weights/weight.bin"), offset = tensor<uint64, []>(478400)))];
            tensor<fp16, [1, 128, 40, 40]> input_49_cast_fp16 = conv(bias = model_model_6_cv1_conv_bias_to_fp16, dilations = input_49_dilations_0, groups = input_49_groups_0, pad = input_49_pad_0, pad_type = input_49_pad_type_0, strides = input_49_strides_0, weight = model_model_6_cv1_conv_weight_to_fp16, x = input_47_cast_fp16)[name = tensor<string, []>("input_49_cast_fp16")];
            tensor<fp16, [1, 128, 40, 40]> var_205_cast_fp16 = silu(x = input_49_cast_fp16)[name = tensor<string, []>("op_205_cast_fp16")];
            tensor<int32, [2]> var_206 = const()[name = tensor<string, []>("op_206"), val = tensor<int32, [2]>([64, 64])];
            tensor<int32, []> var_207_axis_0 = const()[name = tensor<string, []>("op_207_axis_0"), val = tensor<int32, []>(1)];
            tensor<fp16, [1, 64, 40, 40]> var_207_cast_fp16_0, tensor<fp16, [1, 64, 40, 40]> var_207_cast_fp16_1 = split(axis = var_207_axis_0, split_sizes = var_206, x = var_205_cast_fp16)[name = tensor<string, []>("op_207_cast_fp16")];
            tensor<string, []> input_53_pad_type_0 = const()[name = tensor<string, []>("input_53_pad_type_0"), val = tensor<string, []>("valid")];
            tensor<int32, [2]> input_53_strides_0 = const()[name = tensor<string, []>("input_53_strides_0"), val = tensor<int32, [2]>([1, 1])];
            tensor<int32, [4]> input_53_pad_0 = const()[name = tensor<string, []>("input_53_pad_0"), val = tensor<int32, [4]>([0, 0, 0, 0])];
            tensor<int32, [2]> input_53_dilations_0 = const()[name = tensor<string, []>("input_53_dilations_0"), val = tensor<int32, [2]>([1, 1])];
            tensor<int32, []> input_53_groups_0 = const()[name = tensor<string, []>("input_53_groups_0"), val = tensor<int32, []>(1)];
            tensor<fp16, [32, 64, 1, 1]> model_model_6_m_0_cv1_conv_weight_to_fp16 = const()[name = tensor<string, []>("model_model_6_m_0_cv1_conv_weight_to_fp16"), val = tensor<fp16, [32, 64, 1, 1]>(BLOBFILE(path = tensor<string, []>("@model_path/weights/weight.bin"), offset = tensor<uint64, []>(478720)))];
            tensor<fp16, [32]> model_model_6_m_0_cv1_conv_bias_to_fp16 = const()[name = tensor<string, []>("model_model_6_m_0_cv1_conv_bias_to_fp16"), val = tensor<fp16, [32]>(BLOBFILE(path = tensor<string, []>("@model_path/weights/weight.bin"), offset = tensor<uint64, []>(482880)))];
            tensor<fp16, [1, 32, 40, 40]> input_53_cast_fp16 = conv(bias = model_model_6_m_0_cv1_conv_bias_to_fp16, dilations = input_53_dilations_0, groups = input_53_groups_0, pad = input_53_pad_0, pad_type = input_53_pad_type_0, strides = input_53_strides_0, weight = model_model_6_m_0_cv1_conv_weight_to_fp16, x = var_207_cast_fp16_1)[name = tensor<string, []>("input_53_cast_fp16")];
            tensor<fp16, [1, 32, 40, 40]> input_55_cast_fp16 = silu(x = input_53_cast_fp16)[name = tensor<string, []>("input_55_cast_fp16")];
            tensor<string, []> input_57_pad_type_0 = const()[name = tensor<string, []>("input_57_pad_type_0"), val = tensor<string, []>("custom")];
            tensor<int32, [4]> input_57_pad_0 = const()[name = tensor<string, []>("input_57_pad_0"), val = tensor<int32, [4]>([1, 1, 1, 1])];
            tensor<int32, [2]> input_57_strides_0 = const()[name = tensor<string, []>("input_57_strides_0"), val = tensor<int32, [2]>([1, 1])];
            tensor<int32, [2]> input_57_dilations_0 = const()[name = tensor<string, []>("input_57_dilations_0"), val = tensor<int32, [2]>([1, 1])];
            tensor<int32, []> input_57_groups_0 = const()[name = tensor<string, []>("input_57_groups_0"), val = tensor<int32, []>(1)];
            tensor<fp16, [32, 32, 3, 3]> model_model_6_m_0_m_0_cv1_conv_weight_to_fp16 = const()[name = tensor<string, []>("model_model_6_m_0_m_0_cv1_conv_weight_to_fp16"), val = tensor<fp16, [32, 32, 3, 3]>(BLOBFILE(path = tensor<string, []>("@model_path/weights/weight.bin"), offset = tensor<uint64, []>(483008)))];
            tensor<fp16, [32]> model_model_6_m_0_m_0_cv1_conv_bias_to_fp16 = const()[name = tensor<string, []>("model_model_6_m_0_m_0_cv1_conv_bias_to_fp16"), val = tensor<fp16, [32]>(BLOBFILE(path = tensor<string, []>("@model_path/weights/weight.bin"), offset = tensor<uint64, []>(501504)))];
            tensor<fp16, [1, 32, 40, 40]> input_57_cast_fp16 = conv(bias = model_model_6_m_0_m_0_cv1_conv_bias_to_fp16, dilations = input_57_dilations_0, groups = input_57_groups_0, pad = input_57_pad_0, pad_type = input_57_pad_type_0, strides = input_57_strides_0, weight = model_model_6_m_0_m_0_cv1_conv_weight_to_fp16, x = input_55_cast_fp16)[name = tensor<string, []>("input_57_cast_fp16")];
            tensor<fp16, [1, 32, 40, 40]> input_59_cast_fp16 = silu(x = input_57_cast_fp16)[name = tensor<string, []>("input_59_cast_fp16")];
            tensor<string, []> input_61_pad_type_0 = const()[name = tensor<string, []>("input_61_pad_type_0"), val = tensor<string, []>("custom")];
            tensor<int32, [4]> input_61_pad_0 = const()[name = tensor<string, []>("input_61_pad_0"), val = tensor<int32, [4]>([1, 1, 1, 1])];
            tensor<int32, [2]> input_61_strides_0 = const()[name = tensor<string, []>("input_61_strides_0"), val = tensor<int32, [2]>([1, 1])];
            tensor<int32, [2]> input_61_dilations_0 = const()[name = tensor<string, []>("input_61_dilations_0"), val = tensor<int32, [2]>([1, 1])];
            tensor<int32, []> input_61_groups_0 = const()[name = tensor<string, []>("input_61_groups_0"), val = tensor<int32, []>(1)];
            tensor<fp16, [32, 32, 3, 3]> model_model_6_m_0_m_0_cv2_conv_weight_to_fp16 = const()[name = tensor<string, []>("model_model_6_m_0_m_0_cv2_conv_weight_to_fp16"), val = tensor<fp16, [32, 32, 3, 3]>(BLOBFILE(path = tensor<string, []>("@model_path/weights/weight.bin"), offset = tensor<uint64, []>(501632)))];
            tensor<fp16, [32]> model_model_6_m_0_m_0_cv2_conv_bias_to_fp16 = const()[name = tensor<string, []>("model_model_6_m_0_m_0_cv2_conv_bias_to_fp16"), val = tensor<fp16, [32]>(BLOBFILE(path = tensor<string, []>("@model_path/weights/weight.bin"), offset = tensor<uint64, []>(520128)))];
            tensor<fp16, [1, 32, 40, 40]> input_61_cast_fp16 = conv(bias = model_model_6_m_0_m_0_cv2_conv_bias_to_fp16, dilations = input_61_dilations_0, groups = input_61_groups_0, pad = input_61_pad_0, pad_type = input_61_pad_type_0, strides = input_61_strides_0, weight = model_model_6_m_0_m_0_cv2_conv_weight_to_fp16, x = input_59_cast_fp16)[name = tensor<string, []>("input_61_cast_fp16")];
            tensor<fp16, [1, 32, 40, 40]> var_244_cast_fp16 = silu(x = input_61_cast_fp16)[name = tensor<string, []>("op_244_cast_fp16")];
            tensor<fp16, [1, 32, 40, 40]> input_63_cast_fp16 = add(x = input_55_cast_fp16, y = var_244_cast_fp16)[name = tensor<string, []>("input_63_cast_fp16")];
            tensor<string, []> input_65_pad_type_0 = const()[name = tensor<string, []>("input_65_pad_type_0"), val = tensor<string, []>("custom")];
            tensor<int32, [4]> input_65_pad_0 = const()[name = tensor<string, []>("input_65_pad_0"), val = tensor<int32, [4]>([1, 1, 1, 1])];
            tensor<int32, [2]> input_65_strides_0 = const()[name = tensor<string, []>("input_65_strides_0"), val = tensor<int32, [2]>([1, 1])];
            tensor<int32, [2]> input_65_dilations_0 = const()[name = tensor<string, []>("input_65_dilations_0"), val = tensor<int32, [2]>([1, 1])];
            tensor<int32, []> input_65_groups_0 = const()[name = tensor<string, []>("input_65_groups_0"), val = tensor<int32, []>(1)];
            tensor<fp16, [32, 32, 3, 3]> model_model_6_m_0_m_1_cv1_conv_weight_to_fp16 = const()[name = tensor<string, []>("model_model_6_m_0_m_1_cv1_conv_weight_to_fp16"), val = tensor<fp16, [32, 32, 3, 3]>(BLOBFILE(path = tensor<string, []>("@model_path/weights/weight.bin"), offset = tensor<uint64, []>(520256)))];
            tensor<fp16, [32]> model_model_6_m_0_m_1_cv1_conv_bias_to_fp16 = const()[name = tensor<string, []>("model_model_6_m_0_m_1_cv1_conv_bias_to_fp16"), val = tensor<fp16, [32]>(BLOBFILE(path = tensor<string, []>("@model_path/weights/weight.bin"), offset = tensor<uint64, []>(538752)))];
            tensor<fp16, [1, 32, 40, 40]> input_65_cast_fp16 = conv(bias = model_model_6_m_0_m_1_cv1_conv_bias_to_fp16, dilations = input_65_dilations_0, groups = input_65_groups_0, pad = input_65_pad_0, pad_type = input_65_pad_type_0, strides = input_65_strides_0, weight = model_model_6_m_0_m_1_cv1_conv_weight_to_fp16, x = input_63_cast_fp16)[name = tensor<string, []>("input_65_cast_fp16")];
            tensor<fp16, [1, 32, 40, 40]> input_67_cast_fp16 = silu(x = input_65_cast_fp16)[name = tensor<string, []>("input_67_cast_fp16")];
            tensor<string, []> input_69_pad_type_0 = const()[name = tensor<string, []>("input_69_pad_type_0"), val = tensor<string, []>("custom")];
            tensor<int32, [4]> input_69_pad_0 = const()[name = tensor<string, []>("input_69_pad_0"), val = tensor<int32, [4]>([1, 1, 1, 1])];
            tensor<int32, [2]> input_69_strides_0 = const()[name = tensor<string, []>("input_69_strides_0"), val = tensor<int32, [2]>([1, 1])];
            tensor<int32, [2]> input_69_dilations_0 = const()[name = tensor<string, []>("input_69_dilations_0"), val = tensor<int32, [2]>([1, 1])];
            tensor<int32, []> input_69_groups_0 = const()[name = tensor<string, []>("input_69_groups_0"), val = tensor<int32, []>(1)];
            tensor<fp16, [32, 32, 3, 3]> model_model_6_m_0_m_1_cv2_conv_weight_to_fp16 = const()[name = tensor<string, []>("model_model_6_m_0_m_1_cv2_conv_weight_to_fp16"), val = tensor<fp16, [32, 32, 3, 3]>(BLOBFILE(path = tensor<string, []>("@model_path/weights/weight.bin"), offset = tensor<uint64, []>(538880)))];
            tensor<fp16, [32]> model_model_6_m_0_m_1_cv2_conv_bias_to_fp16 = const()[name = tensor<string, []>("model_model_6_m_0_m_1_cv2_conv_bias_to_fp16"), val = tensor<fp16, [32]>(BLOBFILE(path = tensor<string, []>("@model_path/weights/weight.bin"), offset = tensor<uint64, []>(557376)))];
            tensor<fp16, [1, 32, 40, 40]> input_69_cast_fp16 = conv(bias = model_model_6_m_0_m_1_cv2_conv_bias_to_fp16, dilations = input_69_dilations_0, groups = input_69_groups_0, pad = input_69_pad_0, pad_type = input_69_pad_type_0, strides = input_69_strides_0, weight = model_model_6_m_0_m_1_cv2_conv_weight_to_fp16, x = input_67_cast_fp16)[name = tensor<string, []>("input_69_cast_fp16")];
            tensor<fp16, [1, 32, 40, 40]> var_265_cast_fp16 = silu(x = input_69_cast_fp16)[name = tensor<string, []>("op_265_cast_fp16")];
            tensor<fp16, [1, 32, 40, 40]> var_266_cast_fp16 = add(x = input_63_cast_fp16, y = var_265_cast_fp16)[name = tensor<string, []>("op_266_cast_fp16")];
            tensor<string, []> input_71_pad_type_0 = const()[name = tensor<string, []>("input_71_pad_type_0"), val = tensor<string, []>("valid")];
            tensor<int32, [2]> input_71_strides_0 = const()[name = tensor<string, []>("input_71_strides_0"), val = tensor<int32, [2]>([1, 1])];
            tensor<int32, [4]> input_71_pad_0 = const()[name = tensor<string, []>("input_71_pad_0"), val = tensor<int32, [4]>([0, 0, 0, 0])];
            tensor<int32, [2]> input_71_dilations_0 = const()[name = tensor<string, []>("input_71_dilations_0"), val = tensor<int32, [2]>([1, 1])];
            tensor<int32, []> input_71_groups_0 = const()[name = tensor<string, []>("input_71_groups_0"), val = tensor<int32, []>(1)];
            tensor<fp16, [32, 64, 1, 1]> model_model_6_m_0_cv2_conv_weight_to_fp16 = const()[name = tensor<string, []>("model_model_6_m_0_cv2_conv_weight_to_fp16"), val = tensor<fp16, [32, 64, 1, 1]>(BLOBFILE(path = tensor<string, []>("@model_path/weights/weight.bin"), offset = tensor<uint64, []>(557504)))];
            tensor<fp16, [32]> model_model_6_m_0_cv2_conv_bias_to_fp16 = const()[name = tensor<string, []>("model_model_6_m_0_cv2_conv_bias_to_fp16"), val = tensor<fp16, [32]>(BLOBFILE(path = tensor<string, []>("@model_path/weights/weight.bin"), offset = tensor<uint64, []>(561664)))];
            tensor<fp16, [1, 32, 40, 40]> input_71_cast_fp16 = conv(bias = model_model_6_m_0_cv2_conv_bias_to_fp16, dilations = input_71_dilations_0, groups = input_71_groups_0, pad = input_71_pad_0, pad_type = input_71_pad_type_0, strides = input_71_strides_0, weight = model_model_6_m_0_cv2_conv_weight_to_fp16, x = var_207_cast_fp16_1)[name = tensor<string, []>("input_71_cast_fp16")];
            tensor<fp16, [1, 32, 40, 40]> var_275_cast_fp16 = silu(x = input_71_cast_fp16)[name = tensor<string, []>("op_275_cast_fp16")];
            tensor<bool, []> input_73_interleave_0 = const()[name = tensor<string, []>("input_73_interleave_0"), val = tensor<bool, []>(false)];
            tensor<fp16, [1, 64, 40, 40]> input_73_cast_fp16 = concat(axis = var_21, interleave = input_73_interleave_0, values = (var_266_cast_fp16, var_275_cast_fp16))[name = tensor<string, []>("input_73_cast_fp16")];
            tensor<string, []> input_75_pad_type_0 = const()[name = tensor<string, []>("input_75_pad_type_0"), val = tensor<string, []>("valid")];
            tensor<int32, [2]> input_75_strides_0 = const()[name = tensor<string, []>("input_75_strides_0"), val = tensor<int32, [2]>([1, 1])];
            tensor<int32, [4]> input_75_pad_0 = const()[name = tensor<string, []>("input_75_pad_0"), val = tensor<int32, [4]>([0, 0, 0, 0])];
            tensor<int32, [2]> input_75_dilations_0 = const()[name = tensor<string, []>("input_75_dilations_0"), val = tensor<int32, [2]>([1, 1])];
            tensor<int32, []> input_75_groups_0 = const()[name = tensor<string, []>("input_75_groups_0"), val = tensor<int32, []>(1)];
            tensor<fp16, [64, 64, 1, 1]> model_model_6_m_0_cv3_conv_weight_to_fp16 = const()[name = tensor<string, []>("model_model_6_m_0_cv3_conv_weight_to_fp16"), val = tensor<fp16, [64, 64, 1, 1]>(BLOBFILE(path = tensor<string, []>("@model_path/weights/weight.bin"), offset = tensor<uint64, []>(561792)))];
            tensor<fp16, [64]> model_model_6_m_0_cv3_conv_bias_to_fp16 = const()[name = tensor<string, []>("model_model_6_m_0_cv3_conv_bias_to_fp16"), val = tensor<fp16, [64]>(BLOBFILE(path = tensor<string, []>("@model_path/weights/weight.bin"), offset = tensor<uint64, []>(570048)))];
            tensor<fp16, [1, 64, 40, 40]> input_75_cast_fp16 = conv(bias = model_model_6_m_0_cv3_conv_bias_to_fp16, dilations = input_75_dilations_0, groups = input_75_groups_0, pad = input_75_pad_0, pad_type = input_75_pad_type_0, strides = input_75_strides_0, weight = model_model_6_m_0_cv3_conv_weight_to_fp16, x = input_73_cast_fp16)[name = tensor<string, []>("input_75_cast_fp16")];
            tensor<fp16, [1, 64, 40, 40]> var_286_cast_fp16 = silu(x = input_75_cast_fp16)[name = tensor<string, []>("op_286_cast_fp16")];
            tensor<bool, []> input_77_interleave_0 = const()[name = tensor<string, []>("input_77_interleave_0"), val = tensor<bool, []>(false)];
            tensor<fp16, [1, 192, 40, 40]> input_77_cast_fp16 = concat(axis = var_21, interleave = input_77_interleave_0, values = (var_207_cast_fp16_0, var_207_cast_fp16_1, var_286_cast_fp16))[name = tensor<string, []>("input_77_cast_fp16")];
            tensor<string, []> input_79_pad_type_0 = const()[name = tensor<string, []>("input_79_pad_type_0"), val = tensor<string, []>("valid")];
            tensor<int32, [2]> input_79_strides_0 = const()[name = tensor<string, []>("input_79_strides_0"), val = tensor<int32, [2]>([1, 1])];
            tensor<int32, [4]> input_79_pad_0 = const()[name = tensor<string, []>("input_79_pad_0"), val = tensor<int32, [4]>([0, 0, 0, 0])];
            tensor<int32, [2]> input_79_dilations_0 = const()[name = tensor<string, []>("input_79_dilations_0"), val = tensor<int32, [2]>([1, 1])];
            tensor<int32, []> input_79_groups_0 = const()[name = tensor<string, []>("input_79_groups_0"), val = tensor<int32, []>(1)];
            tensor<fp16, [128, 192, 1, 1]> model_model_6_cv2_conv_weight_to_fp16 = const()[name = tensor<string, []>("model_model_6_cv2_conv_weight_to_fp16"), val = tensor<fp16, [128, 192, 1, 1]>(BLOBFILE(path = tensor<string, []>("@model_path/weights/weight.bin"), offset = tensor<uint64, []>(570240)))];
            tensor<fp16, [128]> model_model_6_cv2_conv_bias_to_fp16 = const()[name = tensor<string, []>("model_model_6_cv2_conv_bias_to_fp16"), val = tensor<fp16, [128]>(BLOBFILE(path = tensor<string, []>("@model_path/weights/weight.bin"), offset = tensor<uint64, []>(619456)))];
            tensor<fp16, [1, 128, 40, 40]> input_79_cast_fp16 = conv(bias = model_model_6_cv2_conv_bias_to_fp16, dilations = input_79_dilations_0, groups = input_79_groups_0, pad = input_79_pad_0, pad_type = input_79_pad_type_0, strides = input_79_strides_0, weight = model_model_6_cv2_conv_weight_to_fp16, x = input_77_cast_fp16)[name = tensor<string, []>("input_79_cast_fp16")];
            tensor<fp16, [1, 128, 40, 40]> input_81_cast_fp16 = silu(x = input_79_cast_fp16)[name = tensor<string, []>("input_81_cast_fp16")];
            tensor<string, []> input_83_pad_type_0 = const()[name = tensor<string, []>("input_83_pad_type_0"), val = tensor<string, []>("custom")];
            tensor<int32, [4]> input_83_pad_0 = const()[name = tensor<string, []>("input_83_pad_0"), val = tensor<int32, [4]>([1, 1, 1, 1])];
            tensor<int32, [2]> input_83_strides_0 = const()[name = tensor<string, []>("input_83_strides_0"), val = tensor<int32, [2]>([2, 2])];
            tensor<int32, [2]> input_83_dilations_0 = const()[name = tensor<string, []>("input_83_dilations_0"), val = tensor<int32, [2]>([1, 1])];
            tensor<int32, []> input_83_groups_0 = const()[name = tensor<string, []>("input_83_groups_0"), val = tensor<int32, []>(1)];
            tensor<fp16, [256, 128, 3, 3]> model_model_7_conv_weight_to_fp16 = const()[name = tensor<string, []>("model_model_7_conv_weight_to_fp16"), val = tensor<fp16, [256, 128, 3, 3]>(BLOBFILE(path = tensor<string, []>("@model_path/weights/weight.bin"), offset = tensor<uint64, []>(619776)))];
            tensor<fp16, [256]> model_model_7_conv_bias_to_fp16 = const()[name = tensor<string, []>("model_model_7_conv_bias_to_fp16"), val = tensor<fp16, [256]>(BLOBFILE(path = tensor<string, []>("@model_path/weights/weight.bin"), offset = tensor<uint64, []>(1209664)))];
            tensor<fp16, [1, 256, 20, 20]> input_83_cast_fp16 = conv(bias = model_model_7_conv_bias_to_fp16, dilations = input_83_dilations_0, groups = input_83_groups_0, pad = input_83_pad_0, pad_type = input_83_pad_type_0, strides = input_83_strides_0, weight = model_model_7_conv_weight_to_fp16, x = input_81_cast_fp16)[name = tensor<string, []>("input_83_cast_fp16")];
            tensor<fp16, [1, 256, 20, 20]> input_85_cast_fp16 = silu(x = input_83_cast_fp16)[name = tensor<string, []>("input_85_cast_fp16")];
            tensor<string, []> input_87_pad_type_0 = const()[name = tensor<string, []>("input_87_pad_type_0"), val = tensor<string, []>("valid")];
            tensor<int32, [2]> input_87_strides_0 = const()[name = tensor<string, []>("input_87_strides_0"), val = tensor<int32, [2]>([1, 1])];
            tensor<int32, [4]> input_87_pad_0 = const()[name = tensor<string, []>("input_87_pad_0"), val = tensor<int32, [4]>([0, 0, 0, 0])];
            tensor<int32, [2]> input_87_dilations_0 = const()[name = tensor<string, []>("input_87_dilations_0"), val = tensor<int32, [2]>([1, 1])];
            tensor<int32, []> input_87_groups_0 = const()[name = tensor<string, []>("input_87_groups_0"), val = tensor<int32, []>(1)];
            tensor<fp16, [256, 256, 1, 1]> model_model_8_cv1_conv_weight_to_fp16 = const()[name = tensor<string, []>("model_model_8_cv1_conv_weight_to_fp16"), val = tensor<fp16, [256, 256, 1, 1]>(BLOBFILE(path = tensor<string, []>("@model_path/weights/weight.bin"), offset = tensor<uint64, []>(1210240)))];
            tensor<fp16, [256]> model_model_8_cv1_conv_bias_to_fp16 = const()[name = tensor<string, []>("model_model_8_cv1_conv_bias_to_fp16"), val = tensor<fp16, [256]>(BLOBFILE(path = tensor<string, []>("@model_path/weights/weight.bin"), offset = tensor<uint64, []>(1341376)))];
            tensor<fp16, [1, 256, 20, 20]> input_87_cast_fp16 = conv(bias = model_model_8_cv1_conv_bias_to_fp16, dilations = input_87_dilations_0, groups = input_87_groups_0, pad = input_87_pad_0, pad_type = input_87_pad_type_0, strides = input_87_strides_0, weight = model_model_8_cv1_conv_weight_to_fp16, x = input_85_cast_fp16)[name = tensor<string, []>("input_87_cast_fp16")];
            tensor<fp16, [1, 256, 20, 20]> var_319_cast_fp16 = silu(x = input_87_cast_fp16)[name = tensor<string, []>("op_319_cast_fp16")];
            tensor<int32, [2]> var_320 = const()[name = tensor<string, []>("op_320"), val = tensor<int32, [2]>([128, 128])];
            tensor<int32, []> var_321_axis_0 = const()[name = tensor<string, []>("op_321_axis_0"), val = tensor<int32, []>(1)];
            tensor<fp16, [1, 128, 20, 20]> var_321_cast_fp16_0, tensor<fp16, [1, 128, 20, 20]> var_321_cast_fp16_1 = split(axis = var_321_axis_0, split_sizes = var_320, x = var_319_cast_fp16)[name = tensor<string, []>("op_321_cast_fp16")];
            tensor<string, []> input_91_pad_type_0 = const()[name = tensor<string, []>("input_91_pad_type_0"), val = tensor<string, []>("valid")];
            tensor<int32, [2]> input_91_strides_0 = const()[name = tensor<string, []>("input_91_strides_0"), val = tensor<int32, [2]>([1, 1])];
            tensor<int32, [4]> input_91_pad_0 = const()[name = tensor<string, []>("input_91_pad_0"), val = tensor<int32, [4]>([0, 0, 0, 0])];
            tensor<int32, [2]> input_91_dilations_0 = const()[name = tensor<string, []>("input_91_dilations_0"), val = tensor<int32, [2]>([1, 1])];
            tensor<int32, []> input_91_groups_0 = const()[name = tensor<string, []>("input_91_groups_0"), val = tensor<int32, []>(1)];
            tensor<fp16, [64, 128, 1, 1]> model_model_8_m_0_cv1_conv_weight_to_fp16 = const()[name = tensor<string, []>("model_model_8_m_0_cv1_conv_weight_to_fp16"), val = tensor<fp16, [64, 128, 1, 1]>(BLOBFILE(path = tensor<string, []>("@model_path/weights/weight.bin"), offset = tensor<uint64, []>(1341952)))];
            tensor<fp16, [64]> model_model_8_m_0_cv1_conv_bias_to_fp16 = const()[name = tensor<string, []>("model_model_8_m_0_cv1_conv_bias_to_fp16"), val = tensor<fp16, [64]>(BLOBFILE(path = tensor<string, []>("@model_path/weights/weight.bin"), offset = tensor<uint64, []>(1358400)))];
            tensor<fp16, [1, 64, 20, 20]> input_91_cast_fp16 = conv(bias = model_model_8_m_0_cv1_conv_bias_to_fp16, dilations = input_91_dilations_0, groups = input_91_groups_0, pad = input_91_pad_0, pad_type = input_91_pad_type_0, strides = input_91_strides_0, weight = model_model_8_m_0_cv1_conv_weight_to_fp16, x = var_321_cast_fp16_1)[name = tensor<string, []>("input_91_cast_fp16")];
            tensor<fp16, [1, 64, 20, 20]> input_93_cast_fp16 = silu(x = input_91_cast_fp16)[name = tensor<string, []>("input_93_cast_fp16")];
            tensor<string, []> input_95_pad_type_0 = const()[name = tensor<string, []>("input_95_pad_type_0"), val = tensor<string, []>("custom")];
            tensor<int32, [4]> input_95_pad_0 = const()[name = tensor<string, []>("input_95_pad_0"), val = tensor<int32, [4]>([1, 1, 1, 1])];
            tensor<int32, [2]> input_95_strides_0 = const()[name = tensor<string, []>("input_95_strides_0"), val = tensor<int32, [2]>([1, 1])];
            tensor<int32, [2]> input_95_dilations_0 = const()[name = tensor<string, []>("input_95_dilations_0"), val = tensor<int32, [2]>([1, 1])];
            tensor<int32, []> input_95_groups_0 = const()[name = tensor<string, []>("input_95_groups_0"), val = tensor<int32, []>(1)];
            tensor<fp16, [64, 64, 3, 3]> model_model_8_m_0_m_0_cv1_conv_weight_to_fp16 = const()[name = tensor<string, []>("model_model_8_m_0_m_0_cv1_conv_weight_to_fp16"), val = tensor<fp16, [64, 64, 3, 3]>(BLOBFILE(path = tensor<string, []>("@model_path/weights/weight.bin"), offset = tensor<uint64, []>(1358592)))];
            tensor<fp16, [64]> model_model_8_m_0_m_0_cv1_conv_bias_to_fp16 = const()[name = tensor<string, []>("model_model_8_m_0_m_0_cv1_conv_bias_to_fp16"), val = tensor<fp16, [64]>(BLOBFILE(path = tensor<string, []>("@model_path/weights/weight.bin"), offset = tensor<uint64, []>(1432384)))];
            tensor<fp16, [1, 64, 20, 20]> input_95_cast_fp16 = conv(bias = model_model_8_m_0_m_0_cv1_conv_bias_to_fp16, dilations = input_95_dilations_0, groups = input_95_groups_0, pad = input_95_pad_0, pad_type = input_95_pad_type_0, strides = input_95_strides_0, weight = model_model_8_m_0_m_0_cv1_conv_weight_to_fp16, x = input_93_cast_fp16)[name = tensor<string, []>("input_95_cast_fp16")];
            tensor<fp16, [1, 64, 20, 20]> input_97_cast_fp16 = silu(x = input_95_cast_fp16)[name = tensor<string, []>("input_97_cast_fp16")];
            tensor<string, []> input_99_pad_type_0 = const()[name = tensor<string, []>("input_99_pad_type_0"), val = tensor<string, []>("custom")];
            tensor<int32, [4]> input_99_pad_0 = const()[name = tensor<string, []>("input_99_pad_0"), val = tensor<int32, [4]>([1, 1, 1, 1])];
            tensor<int32, [2]> input_99_strides_0 = const()[name = tensor<string, []>("input_99_strides_0"), val = tensor<int32, [2]>([1, 1])];
            tensor<int32, [2]> input_99_dilations_0 = const()[name = tensor<string, []>("input_99_dilations_0"), val = tensor<int32, [2]>([1, 1])];
            tensor<int32, []> input_99_groups_0 = const()[name = tensor<string, []>("input_99_groups_0"), val = tensor<int32, []>(1)];
            tensor<fp16, [64, 64, 3, 3]> model_model_8_m_0_m_0_cv2_conv_weight_to_fp16 = const()[name = tensor<string, []>("model_model_8_m_0_m_0_cv2_conv_weight_to_fp16"), val = tensor<fp16, [64, 64, 3, 3]>(BLOBFILE(path = tensor<string, []>("@model_path/weights/weight.bin"), offset = tensor<uint64, []>(1432576)))];
            tensor<fp16, [64]> model_model_8_m_0_m_0_cv2_conv_bias_to_fp16 = const()[name = tensor<string, []>("model_model_8_m_0_m_0_cv2_conv_bias_to_fp16"), val = tensor<fp16, [64]>(BLOBFILE(path = tensor<string, []>("@model_path/weights/weight.bin"), offset = tensor<uint64, []>(1506368)))];
            tensor<fp16, [1, 64, 20, 20]> input_99_cast_fp16 = conv(bias = model_model_8_m_0_m_0_cv2_conv_bias_to_fp16, dilations = input_99_dilations_0, groups = input_99_groups_0, pad = input_99_pad_0, pad_type = input_99_pad_type_0, strides = input_99_strides_0, weight = model_model_8_m_0_m_0_cv2_conv_weight_to_fp16, x = input_97_cast_fp16)[name = tensor<string, []>("input_99_cast_fp16")];
            tensor<fp16, [1, 64, 20, 20]> var_358_cast_fp16 = silu(x = input_99_cast_fp16)[name = tensor<string, []>("op_358_cast_fp16")];
            tensor<fp16, [1, 64, 20, 20]> input_101_cast_fp16 = add(x = input_93_cast_fp16, y = var_358_cast_fp16)[name = tensor<string, []>("input_101_cast_fp16")];
            tensor<string, []> input_103_pad_type_0 = const()[name = tensor<string, []>("input_103_pad_type_0"), val = tensor<string, []>("custom")];
            tensor<int32, [4]> input_103_pad_0 = const()[name = tensor<string, []>("input_103_pad_0"), val = tensor<int32, [4]>([1, 1, 1, 1])];
            tensor<int32, [2]> input_103_strides_0 = const()[name = tensor<string, []>("input_103_strides_0"), val = tensor<int32, [2]>([1, 1])];
            tensor<int32, [2]> input_103_dilations_0 = const()[name = tensor<string, []>("input_103_dilations_0"), val = tensor<int32, [2]>([1, 1])];
            tensor<int32, []> input_103_groups_0 = const()[name = tensor<string, []>("input_103_groups_0"), val = tensor<int32, []>(1)];
            tensor<fp16, [64, 64, 3, 3]> model_model_8_m_0_m_1_cv1_conv_weight_to_fp16 = const()[name = tensor<string, []>("model_model_8_m_0_m_1_cv1_conv_weight_to_fp16"), val = tensor<fp16, [64, 64, 3, 3]>(BLOBFILE(path = tensor<string, []>("@model_path/weights/weight.bin"), offset = tensor<uint64, []>(1506560)))];
            tensor<fp16, [64]> model_model_8_m_0_m_1_cv1_conv_bias_to_fp16 = const()[name = tensor<string, []>("model_model_8_m_0_m_1_cv1_conv_bias_to_fp16"), val = tensor<fp16, [64]>(BLOBFILE(path = tensor<string, []>("@model_path/weights/weight.bin"), offset = tensor<uint64, []>(1580352)))];
            tensor<fp16, [1, 64, 20, 20]> input_103_cast_fp16 = conv(bias = model_model_8_m_0_m_1_cv1_conv_bias_to_fp16, dilations = input_103_dilations_0, groups = input_103_groups_0, pad = input_103_pad_0, pad_type = input_103_pad_type_0, strides = input_103_strides_0, weight = model_model_8_m_0_m_1_cv1_conv_weight_to_fp16, x = input_101_cast_fp16)[name = tensor<string, []>("input_103_cast_fp16")];
            tensor<fp16, [1, 64, 20, 20]> input_105_cast_fp16 = silu(x = input_103_cast_fp16)[name = tensor<string, []>("input_105_cast_fp16")];
            tensor<string, []> input_107_pad_type_0 = const()[name = tensor<string, []>("input_107_pad_type_0"), val = tensor<string, []>("custom")];
            tensor<int32, [4]> input_107_pad_0 = const()[name = tensor<string, []>("input_107_pad_0"), val = tensor<int32, [4]>([1, 1, 1, 1])];
            tensor<int32, [2]> input_107_strides_0 = const()[name = tensor<string, []>("input_107_strides_0"), val = tensor<int32, [2]>([1, 1])];
            tensor<int32, [2]> input_107_dilations_0 = const()[name = tensor<string, []>("input_107_dilations_0"), val = tensor<int32, [2]>([1, 1])];
            tensor<int32, []> input_107_groups_0 = const()[name = tensor<string, []>("input_107_groups_0"), val = tensor<int32, []>(1)];
            tensor<fp16, [64, 64, 3, 3]> model_model_8_m_0_m_1_cv2_conv_weight_to_fp16 = const()[name = tensor<string, []>("model_model_8_m_0_m_1_cv2_conv_weight_to_fp16"), val = tensor<fp16, [64, 64, 3, 3]>(BLOBFILE(path = tensor<string, []>("@model_path/weights/weight.bin"), offset = tensor<uint64, []>(1580544)))];
            tensor<fp16, [64]> model_model_8_m_0_m_1_cv2_conv_bias_to_fp16 = const()[name = tensor<string, []>("model_model_8_m_0_m_1_cv2_conv_bias_to_fp16"), val = tensor<fp16, [64]>(BLOBFILE(path = tensor<string, []>("@model_path/weights/weight.bin"), offset = tensor<uint64, []>(1654336)))];
            tensor<fp16, [1, 64, 20, 20]> input_107_cast_fp16 = conv(bias = model_model_8_m_0_m_1_cv2_conv_bias_to_fp16, dilations = input_107_dilations_0, groups = input_107_groups_0, pad = input_107_pad_0, pad_type = input_107_pad_type_0, strides = input_107_strides_0, weight = model_model_8_m_0_m_1_cv2_conv_weight_to_fp16, x = input_105_cast_fp16)[name = tensor<string, []>("input_107_cast_fp16")];
            tensor<fp16, [1, 64, 20, 20]> var_379_cast_fp16 = silu(x = input_107_cast_fp16)[name = tensor<string, []>("op_379_cast_fp16")];
            tensor<fp16, [1, 64, 20, 20]> var_380_cast_fp16 = add(x = input_101_cast_fp16, y = var_379_cast_fp16)[name = tensor<string, []>("op_380_cast_fp16")];
            tensor<string, []> input_109_pad_type_0 = const()[name = tensor<string, []>("input_109_pad_type_0"), val = tensor<string, []>("valid")];
            tensor<int32, [2]> input_109_strides_0 = const()[name = tensor<string, []>("input_109_strides_0"), val = tensor<int32, [2]>([1, 1])];
            tensor<int32, [4]> input_109_pad_0 = const()[name = tensor<string, []>("input_109_pad_0"), val = tensor<int32, [4]>([0, 0, 0, 0])];
            tensor<int32, [2]> input_109_dilations_0 = const()[name = tensor<string, []>("input_109_dilations_0"), val = tensor<int32, [2]>([1, 1])];
            tensor<int32, []> input_109_groups_0 = const()[name = tensor<string, []>("input_109_groups_0"), val = tensor<int32, []>(1)];
            tensor<fp16, [64, 128, 1, 1]> model_model_8_m_0_cv2_conv_weight_to_fp16 = const()[name = tensor<string, []>("model_model_8_m_0_cv2_conv_weight_to_fp16"), val = tensor<fp16, [64, 128, 1, 1]>(BLOBFILE(path = tensor<string, []>("@model_path/weights/weight.bin"), offset = tensor<uint64, []>(1654528)))];
            tensor<fp16, [64]> model_model_8_m_0_cv2_conv_bias_to_fp16 = const()[name = tensor<string, []>("model_model_8_m_0_cv2_conv_bias_to_fp16"), val = tensor<fp16, [64]>(BLOBFILE(path = tensor<string, []>("@model_path/weights/weight.bin"), offset = tensor<uint64, []>(1670976)))];
            tensor<fp16, [1, 64, 20, 20]> input_109_cast_fp16 = conv(bias = model_model_8_m_0_cv2_conv_bias_to_fp16, dilations = input_109_dilations_0, groups = input_109_groups_0, pad = input_109_pad_0, pad_type = input_109_pad_type_0, strides = input_109_strides_0, weight = model_model_8_m_0_cv2_conv_weight_to_fp16, x = var_321_cast_fp16_1)[name = tensor<string, []>("input_109_cast_fp16")];
            tensor<fp16, [1, 64, 20, 20]> var_389_cast_fp16 = silu(x = input_109_cast_fp16)[name = tensor<string, []>("op_389_cast_fp16")];
            tensor<bool, []> input_111_interleave_0 = const()[name = tensor<string, []>("input_111_interleave_0"), val = tensor<bool, []>(false)];
            tensor<fp16, [1, 128, 20, 20]> input_111_cast_fp16 = concat(axis = var_21, interleave = input_111_interleave_0, values = (var_380_cast_fp16, var_389_cast_fp16))[name = tensor<string, []>("input_111_cast_fp16")];
            tensor<string, []> input_113_pad_type_0 = const()[name = tensor<string, []>("input_113_pad_type_0"), val = tensor<string, []>("valid")];
            tensor<int32, [2]> input_113_strides_0 = const()[name = tensor<string, []>("input_113_strides_0"), val = tensor<int32, [2]>([1, 1])];
            tensor<int32, [4]> input_113_pad_0 = const()[name = tensor<string, []>("input_113_pad_0"), val = tensor<int32, [4]>([0, 0, 0, 0])];
            tensor<int32, [2]> input_113_dilations_0 = const()[name = tensor<string, []>("input_113_dilations_0"), val = tensor<int32, [2]>([1, 1])];
            tensor<int32, []> input_113_groups_0 = const()[name = tensor<string, []>("input_113_groups_0"), val = tensor<int32, []>(1)];
            tensor<fp16, [128, 128, 1, 1]> model_model_8_m_0_cv3_conv_weight_to_fp16 = const()[name = tensor<string, []>("model_model_8_m_0_cv3_conv_weight_to_fp16"), val = tensor<fp16, [128, 128, 1, 1]>(BLOBFILE(path = tensor<string, []>("@model_path/weights/weight.bin"), offset = tensor<uint64, []>(1671168)))];
            tensor<fp16, [128]> model_model_8_m_0_cv3_conv_bias_to_fp16 = const()[name = tensor<string, []>("model_model_8_m_0_cv3_conv_bias_to_fp16"), val = tensor<fp16, [128]>(BLOBFILE(path = tensor<string, []>("@model_path/weights/weight.bin"), offset = tensor<uint64, []>(1704000)))];
            tensor<fp16, [1, 128, 20, 20]> input_113_cast_fp16 = conv(bias = model_model_8_m_0_cv3_conv_bias_to_fp16, dilations = input_113_dilations_0, groups = input_113_groups_0, pad = input_113_pad_0, pad_type = input_113_pad_type_0, strides = input_113_strides_0, weight = model_model_8_m_0_cv3_conv_weight_to_fp16, x = input_111_cast_fp16)[name = tensor<string, []>("input_113_cast_fp16")];
            tensor<fp16, [1, 128, 20, 20]> var_400_cast_fp16 = silu(x = input_113_cast_fp16)[name = tensor<string, []>("op_400_cast_fp16")];
            tensor<bool, []> input_115_interleave_0 = const()[name = tensor<string, []>("input_115_interleave_0"), val = tensor<bool, []>(false)];
            tensor<fp16, [1, 384, 20, 20]> input_115_cast_fp16 = concat(axis = var_21, interleave = input_115_interleave_0, values = (var_321_cast_fp16_0, var_321_cast_fp16_1, var_400_cast_fp16))[name = tensor<string, []>("input_115_cast_fp16")];
            tensor<string, []> input_117_pad_type_0 = const()[name = tensor<string, []>("input_117_pad_type_0"), val = tensor<string, []>("valid")];
            tensor<int32, [2]> input_117_strides_0 = const()[name = tensor<string, []>("input_117_strides_0"), val = tensor<int32, [2]>([1, 1])];
            tensor<int32, [4]> input_117_pad_0 = const()[name = tensor<string, []>("input_117_pad_0"), val = tensor<int32, [4]>([0, 0, 0, 0])];
            tensor<int32, [2]> input_117_dilations_0 = const()[name = tensor<string, []>("input_117_dilations_0"), val = tensor<int32, [2]>([1, 1])];
            tensor<int32, []> input_117_groups_0 = const()[name = tensor<string, []>("input_117_groups_0"), val = tensor<int32, []>(1)];
            tensor<fp16, [256, 384, 1, 1]> model_model_8_cv2_conv_weight_to_fp16 = const()[name = tensor<string, []>("model_model_8_cv2_conv_weight_to_fp16"), val = tensor<fp16, [256, 384, 1, 1]>(BLOBFILE(path = tensor<string, []>("@model_path/weights/weight.bin"), offset = tensor<uint64, []>(1704320)))];
            tensor<fp16, [256]> model_model_8_cv2_conv_bias_to_fp16 = const()[name = tensor<string, []>("model_model_8_cv2_conv_bias_to_fp16"), val = tensor<fp16, [256]>(BLOBFILE(path = tensor<string, []>("@model_path/weights/weight.bin"), offset = tensor<uint64, []>(1900992)))];
            tensor<fp16, [1, 256, 20, 20]> input_117_cast_fp16 = conv(bias = model_model_8_cv2_conv_bias_to_fp16, dilations = input_117_dilations_0, groups = input_117_groups_0, pad = input_117_pad_0, pad_type = input_117_pad_type_0, strides = input_117_strides_0, weight = model_model_8_cv2_conv_weight_to_fp16, x = input_115_cast_fp16)[name = tensor<string, []>("input_117_cast_fp16")];
            tensor<fp16, [1, 256, 20, 20]> input_119_cast_fp16 = silu(x = input_117_cast_fp16)[name = tensor<string, []>("input_119_cast_fp16")];
            tensor<string, []> input_121_pad_type_0 = const()[name = tensor<string, []>("input_121_pad_type_0"), val = tensor<string, []>("valid")];
            tensor<int32, [2]> input_121_strides_0 = const()[name = tensor<string, []>("input_121_strides_0"), val = tensor<int32, [2]>([1, 1])];
            tensor<int32, [4]> input_121_pad_0 = const()[name = tensor<string, []>("input_121_pad_0"), val = tensor<int32, [4]>([0, 0, 0, 0])];
            tensor<int32, [2]> input_121_dilations_0 = const()[name = tensor<string, []>("input_121_dilations_0"), val = tensor<int32, [2]>([1, 1])];
            tensor<int32, []> input_121_groups_0 = const()[name = tensor<string, []>("input_121_groups_0"), val = tensor<int32, []>(1)];
            tensor<fp16, [128, 256, 1, 1]> model_model_9_cv1_conv_weight_to_fp16 = const()[name = tensor<string, []>("model_model_9_cv1_conv_weight_to_fp16"), val = tensor<fp16, [128, 256, 1, 1]>(BLOBFILE(path = tensor<string, []>("@model_path/weights/weight.bin"), offset = tensor<uint64, []>(1901568)))];
            tensor<fp16, [128]> model_model_9_cv1_conv_bias_to_fp16 = const()[name = tensor<string, []>("model_model_9_cv1_conv_bias_to_fp16"), val = tensor<fp16, [128]>(BLOBFILE(path = tensor<string, []>("@model_path/weights/weight.bin"), offset = tensor<uint64, []>(1967168)))];
            tensor<fp16, [1, 128, 20, 20]> input_121_cast_fp16 = conv(bias = model_model_9_cv1_conv_bias_to_fp16, dilations = input_121_dilations_0, groups = input_121_groups_0, pad = input_121_pad_0, pad_type = input_121_pad_type_0, strides = input_121_strides_0, weight = model_model_9_cv1_conv_weight_to_fp16, x = input_119_cast_fp16)[name = tensor<string, []>("input_121_cast_fp16")];
            tensor<int32, [2]> var_422 = const()[name = tensor<string, []>("op_422"), val = tensor<int32, [2]>([5, 5])];
            tensor<int32, [2]> var_423 = const()[name = tensor<string, []>("op_423"), val = tensor<int32, [2]>([1, 1])];
            tensor<string, []> input_123_pad_type_0 = const()[name = tensor<string, []>("input_123_pad_type_0"), val = tensor<string, []>("custom")];
            tensor<int32, [4]> input_123_pad_0 = const()[name = tensor<string, []>("input_123_pad_0"), val = tensor<int32, [4]>([2, 2, 2, 2])];
            tensor<bool, []> input_123_ceil_mode_0 = const()[name = tensor<string, []>("input_123_ceil_mode_0"), val = tensor<bool, []>(false)];
            tensor<fp16, [1, 128, 20, 20]> input_123_cast_fp16 = max_pool(ceil_mode = input_123_ceil_mode_0, kernel_sizes = var_422, pad = input_123_pad_0, pad_type = input_123_pad_type_0, strides = var_423, x = input_121_cast_fp16)[name = tensor<string, []>("input_123_cast_fp16")];
            tensor<int32, [2]> var_427 = const()[name = tensor<string, []>("op_427"), val = tensor<int32, [2]>([5, 5])];
            tensor<int32, [2]> var_428 = const()[name = tensor<string, []>("op_428"), val = tensor<int32, [2]>([1, 1])];
            tensor<string, []> input_125_pad_type_0 = const()[name = tensor<string, []>("input_125_pad_type_0"), val = tensor<string, []>("custom")];
            tensor<int32, [4]> input_125_pad_0 = const()[name = tensor<string, []>("input_125_pad_0"), val = tensor<int32, [4]>([2, 2, 2, 2])];
            tensor<bool, []> input_125_ceil_mode_0 = const()[name = tensor<string, []>("input_125_ceil_mode_0"), val = tensor<bool, []>(false)];
            tensor<fp16, [1, 128, 20, 20]> input_125_cast_fp16 = max_pool(ceil_mode = input_125_ceil_mode_0, kernel_sizes = var_427, pad = input_125_pad_0, pad_type = input_125_pad_type_0, strides = var_428, x = input_123_cast_fp16)[name = tensor<string, []>("input_125_cast_fp16")];
            tensor<int32, [2]> var_432 = const()[name = tensor<string, []>("op_432"), val = tensor<int32, [2]>([5, 5])];
            tensor<int32, [2]> var_433 = const()[name = tensor<string, []>("op_433"), val = tensor<int32, [2]>([1, 1])];
            tensor<string, []> var_436_pad_type_0 = const()[name = tensor<string, []>("op_436_pad_type_0"), val = tensor<string, []>("custom")];
            tensor<int32, [4]> var_436_pad_0 = const()[name = tensor<string, []>("op_436_pad_0"), val = tensor<int32, [4]>([2, 2, 2, 2])];
            tensor<bool, []> var_436_ceil_mode_0 = const()[name = tensor<string, []>("op_436_ceil_mode_0"), val = tensor<bool, []>(false)];
            tensor<fp16, [1, 128, 20, 20]> var_436_cast_fp16 = max_pool(ceil_mode = var_436_ceil_mode_0, kernel_sizes = var_432, pad = var_436_pad_0, pad_type = var_436_pad_type_0, strides = var_433, x = input_125_cast_fp16)[name = tensor<string, []>("op_436_cast_fp16")];
            tensor<bool, []> input_127_interleave_0 = const()[name = tensor<string, []>("input_127_interleave_0"), val = tensor<bool, []>(false)];
            tensor<fp16, [1, 512, 20, 20]> input_127_cast_fp16 = concat(axis = var_21, interleave = input_127_interleave_0, values = (input_121_cast_fp16, input_123_cast_fp16, input_125_cast_fp16, var_436_cast_fp16))[name = tensor<string, []>("input_127_cast_fp16")];
            tensor<string, []> input_129_pad_type_0 = const()[name = tensor<string, []>("input_129_pad_type_0"), val = tensor<string, []>("valid")];
            tensor<int32, [2]> input_129_strides_0 = const()[name = tensor<string, []>("input_129_strides_0"), val = tensor<int32, [2]>([1, 1])];
            tensor<int32, [4]> input_129_pad_0 = const()[name = tensor<string, []>("input_129_pad_0"), val = tensor<int32, [4]>([0, 0, 0, 0])];
            tensor<int32, [2]> input_129_dilations_0 = const()[name = tensor<string, []>("input_129_dilations_0"), val = tensor<int32, [2]>([1, 1])];
            tensor<int32, []> input_129_groups_0 = const()[name = tensor<string, []>("input_129_groups_0"), val = tensor<int32, []>(1)];
            tensor<fp16, [256, 512, 1, 1]> model_model_9_cv2_conv_weight_to_fp16 = const()[name = tensor<string, []>("model_model_9_cv2_conv_weight_to_fp16"), val = tensor<fp16, [256, 512, 1, 1]>(BLOBFILE(path = tensor<string, []>("@model_path/weights/weight.bin"), offset = tensor<uint64, []>(1967488)))];
            tensor<fp16, [256]> model_model_9_cv2_conv_bias_to_fp16 = const()[name = tensor<string, []>("model_model_9_cv2_conv_bias_to_fp16"), val = tensor<fp16, [256]>(BLOBFILE(path = tensor<string, []>("@model_path/weights/weight.bin"), offset = tensor<uint64, []>(2229696)))];
            tensor<fp16, [1, 256, 20, 20]> input_129_cast_fp16 = conv(bias = model_model_9_cv2_conv_bias_to_fp16, dilations = input_129_dilations_0, groups = input_129_groups_0, pad = input_129_pad_0, pad_type = input_129_pad_type_0, strides = input_129_strides_0, weight = model_model_9_cv2_conv_weight_to_fp16, x = input_127_cast_fp16)[name = tensor<string, []>("input_129_cast_fp16")];
            tensor<fp16, [1, 256, 20, 20]> input_131_cast_fp16 = silu(x = input_129_cast_fp16)[name = tensor<string, []>("input_131_cast_fp16")];
            tensor<string, []> input_133_pad_type_0 = const()[name = tensor<string, []>("input_133_pad_type_0"), val = tensor<string, []>("valid")];
            tensor<int32, [2]> input_133_strides_0 = const()[name = tensor<string, []>("input_133_strides_0"), val = tensor<int32, [2]>([1, 1])];
            tensor<int32, [4]> input_133_pad_0 = const()[name = tensor<string, []>("input_133_pad_0"), val = tensor<int32, [4]>([0, 0, 0, 0])];
            tensor<int32, [2]> input_133_dilations_0 = const()[name = tensor<string, []>("input_133_dilations_0"), val = tensor<int32, [2]>([1, 1])];
            tensor<int32, []> input_133_groups_0 = const()[name = tensor<string, []>("input_133_groups_0"), val = tensor<int32, []>(1)];
            tensor<fp16, [256, 256, 1, 1]> model_model_10_cv1_conv_weight_to_fp16 = const()[name = tensor<string, []>("model_model_10_cv1_conv_weight_to_fp16"), val = tensor<fp16, [256, 256, 1, 1]>(BLOBFILE(path = tensor<string, []>("@model_path/weights/weight.bin"), offset = tensor<uint64, []>(2230272)))];
            tensor<fp16, [256]> model_model_10_cv1_conv_bias_to_fp16 = const()[name = tensor<string, []>("model_model_10_cv1_conv_bias_to_fp16"), val = tensor<fp16, [256]>(BLOBFILE(path = tensor<string, []>("@model_path/weights/weight.bin"), offset = tensor<uint64, []>(2361408)))];
            tensor<fp16, [1, 256, 20, 20]> input_133_cast_fp16 = conv(bias = model_model_10_cv1_conv_bias_to_fp16, dilations = input_133_dilations_0, groups = input_133_groups_0, pad = input_133_pad_0, pad_type = input_133_pad_type_0, strides = input_133_strides_0, weight = model_model_10_cv1_conv_weight_to_fp16, x = input_131_cast_fp16)[name = tensor<string, []>("input_133_cast_fp16")];
            tensor<fp16, [1, 256, 20, 20]> var_459_cast_fp16 = silu(x = input_133_cast_fp16)[name = tensor<string, []>("op_459_cast_fp16")];
            tensor<int32, [2]> var_460 = const()[name = tensor<string, []>("op_460"), val = tensor<int32, [2]>([128, 128])];
            tensor<int32, []> var_461_axis_0 = const()[name = tensor<string, []>("op_461_axis_0"), val = tensor<int32, []>(1)];
            tensor<fp16, [1, 128, 20, 20]> var_461_cast_fp16_0, tensor<fp16, [1, 128, 20, 20]> var_461_cast_fp16_1 = split(axis = var_461_axis_0, split_sizes = var_460, x = var_459_cast_fp16)[name = tensor<string, []>("op_461_cast_fp16")];
            tensor<string, []> qkv_1_pad_type_0 = const()[name = tensor<string, []>("qkv_1_pad_type_0"), val = tensor<string, []>("valid")];
            tensor<int32, [2]> qkv_1_strides_0 = const()[name = tensor<string, []>("qkv_1_strides_0"), val = tensor<int32, [2]>([1, 1])];
            tensor<int32, [4]> qkv_1_pad_0 = const()[name = tensor<string, []>("qkv_1_pad_0"), val = tensor<int32, [4]>([0, 0, 0, 0])];
            tensor<int32, [2]> qkv_1_dilations_0 = const()[name = tensor<string, []>("qkv_1_dilations_0"), val = tensor<int32, [2]>([1, 1])];
            tensor<int32, []> qkv_1_groups_0 = const()[name = tensor<string, []>("qkv_1_groups_0"), val = tensor<int32, []>(1)];
            tensor<fp16, [256, 128, 1, 1]> model_model_10_m_0_attn_qkv_conv_weight_to_fp16 = const()[name = tensor<string, []>("model_model_10_m_0_attn_qkv_conv_weight_to_fp16"), val = tensor<fp16, [256, 128, 1, 1]>(BLOBFILE(path = tensor<string, []>("@model_path/weights/weight.bin"), offset = tensor<uint64, []>(2361984)))];
            tensor<fp16, [256]> model_model_10_m_0_attn_qkv_conv_bias_to_fp16 = const()[name = tensor<string, []>("model_model_10_m_0_attn_qkv_conv_bias_to_fp16"), val = tensor<fp16, [256]>(BLOBFILE(path = tensor<string, []>("@model_path/weights/weight.bin"), offset = tensor<uint64, []>(2427584)))];
            tensor<fp16, [1, 256, 20, 20]> qkv_1_cast_fp16 = conv(bias = model_model_10_m_0_attn_qkv_conv_bias_to_fp16, dilations = qkv_1_dilations_0, groups = qkv_1_groups_0, pad = qkv_1_pad_0, pad_type = qkv_1_pad_type_0, strides = qkv_1_strides_0, weight = model_model_10_m_0_attn_qkv_conv_weight_to_fp16, x = var_461_cast_fp16_1)[name = tensor<string, []>("qkv_1_cast_fp16")];
            tensor<int32, [4]> var_486 = const()[name = tensor<string, []>("op_486"), val = tensor<int32, [4]>([1, 2, 128, 400])];
            tensor<fp16, [1, 2, 128, 400]> var_487_cast_fp16 = reshape(shape = var_486, x = qkv_1_cast_fp16)[name = tensor<string, []>("op_487_cast_fp16")];
            tensor<int32, [3]> var_488 = const()[name = tensor<string, []>("op_488"), val = tensor<int32, [3]>([32, 32, 64])];
            tensor<int32, []> var_489_axis_0 = const()[name = tensor<string, []>("op_489_axis_0"), val = tensor<int32, []>(2)];
            tensor<fp16, [1, 2, 32, 400]> var_489_cast_fp16_0, tensor<fp16, [1, 2, 32, 400]> var_489_cast_fp16_1, tensor<fp16, [1, 2, 64, 400]> var_489_cast_fp16_2 = split(axis = var_489_axis_0, split_sizes = var_488, x = var_487_cast_fp16)[name = tensor<string, []>("op_489_cast_fp16")];
            tensor<bool, []> var_494_transpose_x_1 = const()[name = tensor<string, []>("op_494_transpose_x_1"), val = tensor<bool, []>(true)];
            tensor<bool, []> var_494_transpose_y_1 = const()[name = tensor<string, []>("op_494_transpose_y_1"), val = tensor<bool, []>(false)];
            tensor<fp16, [1, 2, 400, 400]> var_494_cast_fp16 = matmul(transpose_x = var_494_transpose_x_1, transpose_y = var_494_transpose_y_1, x = var_489_cast_fp16_0, y = var_489_cast_fp16_1)[name = tensor<string, []>("op_494_cast_fp16")];
            tensor<fp16, []> var_495_to_fp16 = const()[name = tensor<string, []>("op_495_to_fp16"), val = tensor<fp16, []>(0x1.6ap-3)];
            tensor<fp16, [1, 2, 400, 400]> attn_1_cast_fp16 = mul(x = var_494_cast_fp16, y = var_495_to_fp16)[name = tensor<string, []>("attn_1_cast_fp16")];
            tensor<fp16, [1, 2, 400, 400]> attn_3_cast_fp16 = softmax(axis = var_9, x = attn_1_cast_fp16)[name = tensor<string, []>("attn_3_cast_fp16")];
            tensor<bool, []> var_499_transpose_x_1 = const()[name = tensor<string, []>("op_499_transpose_x_1"), val = tensor<bool, []>(false)];
            tensor<bool, []> var_499_transpose_y_1 = const()[name = tensor<string, []>("op_499_transpose_y_1"), val = tensor<bool, []>(true)];
            tensor<fp16, [1, 2, 64, 400]> var_499_cast_fp16 = matmul(transpose_x = var_499_transpose_x_1, transpose_y = var_499_transpose_y_1, x = var_489_cast_fp16_2, y = attn_3_cast_fp16)[name = tensor<string, []>("op_499_cast_fp16")];
            tensor<int32, [4]> var_500 = const()[name = tensor<string, []>("op_500"), val = tensor<int32, [4]>([1, 128, 20, 20])];
            tensor<fp16, [1, 128, 20, 20]> var_501_cast_fp16 = reshape(shape = var_500, x = var_499_cast_fp16)[name = tensor<string, []>("op_501_cast_fp16")];
            tensor<int32, [4]> var_502 = const()[name = tensor<string, []>("op_502"), val = tensor<int32, [4]>([1, 128, 20, 20])];
            tensor<fp16, [1, 128, 20, 20]> input_135_cast_fp16 = reshape(shape = var_502, x = var_489_cast_fp16_2)[name = tensor<string, []>("input_135_cast_fp16")];
            tensor<string, []> var_511_pad_type_0 = const()[name = tensor<string, []>("op_511_pad_type_0"), val = tensor<string, []>("custom")];
            tensor<int32, [4]> var_511_pad_0 = const()[name = tensor<string, []>("op_511_pad_0"), val = tensor<int32, [4]>([1, 1, 1, 1])];
            tensor<int32, []> var_511_groups_0 = const()[name = tensor<string, []>("op_511_groups_0"), val = tensor<int32, []>(128)];
            tensor<int32, [2]> var_511_strides_0 = const()[name = tensor<string, []>("op_511_strides_0"), val = tensor<int32, [2]>([1, 1])];
            tensor<int32, [2]> var_511_dilations_0 = const()[name = tensor<string, []>("op_511_dilations_0"), val = tensor<int32, [2]>([1, 1])];
            tensor<fp16, [128, 1, 3, 3]> model_model_10_m_0_attn_pe_conv_weight_to_fp16 = const()[name = tensor<string, []>("model_model_10_m_0_attn_pe_conv_weight_to_fp16"), val = tensor<fp16, [128, 1, 3, 3]>(BLOBFILE(path = tensor<string, []>("@model_path/weights/weight.bin"), offset = tensor<uint64, []>(2428160)))];
            tensor<fp16, [128]> model_model_10_m_0_attn_pe_conv_bias_to_fp16 = const()[name = tensor<string, []>("model_model_10_m_0_attn_pe_conv_bias_to_fp16"), val = tensor<fp16, [128]>(BLOBFILE(path = tensor<string, []>("@model_path/weights/weight.bin"), offset = tensor<uint64, []>(2430528)))];
            tensor<fp16, [1, 128, 20, 20]> var_511_cast_fp16 = conv(bias = model_model_10_m_0_attn_pe_conv_bias_to_fp16, dilations = var_511_dilations_0, groups = var_511_groups_0, pad = var_511_pad_0, pad_type = var_511_pad_type_0, strides = var_511_strides_0, weight = model_model_10_m_0_attn_pe_conv_weight_to_fp16, x = input_135_cast_fp16)[name = tensor<string, []>("op_511_cast_fp16")];
            tensor<fp16, [1, 128, 20, 20]> input_137_cast_fp16 = add(x = var_501_cast_fp16, y = var_511_cast_fp16)[name = tensor<string, []>("input_137_cast_fp16")];
            tensor<string, []> var_520_pad_type_0 = const()[name = tensor<string, []>("op_520_pad_type_0"), val = tensor<string, []>("valid")];
            tensor<int32, [2]> var_520_strides_0 = const()[name = tensor<string, []>("op_520_strides_0"), val = tensor<int32, [2]>([1, 1])];
            tensor<int32, [4]> var_520_pad_0 = const()[name = tensor<string, []>("op_520_pad_0"), val = tensor<int32, [4]>([0, 0, 0, 0])];
            tensor<int32, [2]> var_520_dilations_0 = const()[name = tensor<string, []>("op_520_dilations_0"), val = tensor<int32, [2]>([1, 1])];
            tensor<int32, []> var_520_groups_0 = const()[name = tensor<string, []>("op_520_groups_0"), val = tensor<int32, []>(1)];
            tensor<fp16, [128, 128, 1, 1]> model_model_10_m_0_attn_proj_conv_weight_to_fp16 = const()[name = tensor<string, []>("model_model_10_m_0_attn_proj_conv_weight_to_fp16"), val = tensor<fp16, [128, 128, 1, 1]>(BLOBFILE(path = tensor<string, []>("@model_path/weights/weight.bin"), offset = tensor<uint64, []>(2430848)))];
            tensor<fp16, [128]> model_model_10_m_0_attn_proj_conv_bias_to_fp16 = const()[name = tensor<string, []>("model_model_10_m_0_attn_proj_conv_bias_to_fp16"), val = tensor<fp16, [128]>(BLOBFILE(path = tensor<string, []>("@model_path/weights/weight.bin"), offset = tensor<uint64, []>(2463680)))];
            tensor<fp16, [1, 128, 20, 20]> var_520_cast_fp16 = conv(bias = model_model_10_m_0_attn_proj_conv_bias_to_fp16, dilations = var_520_dilations_0, groups = var_520_groups_0, pad = var_520_pad_0, pad_type = var_520_pad_type_0, strides = var_520_strides_0, weight = model_model_10_m_0_attn_proj_conv_weight_to_fp16, x = input_137_cast_fp16)[name = tensor<string, []>("op_520_cast_fp16")];
            tensor<fp16, [1, 128, 20, 20]> input_139_cast_fp16 = add(x = var_461_cast_fp16_1, y = var_520_cast_fp16)[name = tensor<string, []>("input_139_cast_fp16")];
            tensor<string, []> input_141_pad_type_0 = const()[name = tensor<string, []>("input_141_pad_type_0"), val = tensor<string, []>("valid")];
            tensor<int32, [2]> input_141_strides_0 = const()[name = tensor<string, []>("input_141_strides_0"), val = tensor<int32, [2]>([1, 1])];
            tensor<int32, [4]> input_141_pad_0 = const()[name = tensor<string, []>("input_141_pad_0"), val = tensor<int32, [4]>([0, 0, 0, 0])];
            tensor<int32, [2]> input_141_dilations_0 = const()[name = tensor<string, []>("input_141_dilations_0"), val = tensor<int32, [2]>([1, 1])];
            tensor<int32, []> input_141_groups_0 = const()[name = tensor<string, []>("input_141_groups_0"), val = tensor<int32, []>(1)];
            tensor<fp16, [256, 128, 1, 1]> model_model_10_m_0_ffn_0_conv_weight_to_fp16 = const()[name = tensor<string, []>("model_model_10_m_0_ffn_0_conv_weight_to_fp16"), val = tensor<fp16, [256, 128, 1, 1]>(BLOBFILE(path = tensor<string, []>("@model_path/weights/weight.bin"), offset = tensor<uint64, []>(2464000)))];
            tensor<fp16, [256]> model_model_10_m_0_ffn_0_conv_bias_to_fp16 = const()[name = tensor<string, []>("model_model_10_m_0_ffn_0_conv_bias_to_fp16"), val = tensor<fp16, [256]>(BLOBFILE(path = tensor<string, []>("@model_path/weights/weight.bin"), offset = tensor<uint64, []>(2529600)))];
            tensor<fp16, [1, 256, 20, 20]> input_141_cast_fp16 = conv(bias = model_model_10_m_0_ffn_0_conv_bias_to_fp16, dilations = input_141_dilations_0, groups = input_141_groups_0, pad = input_141_pad_0, pad_type = input_141_pad_type_0, strides = input_141_strides_0, weight = model_model_10_m_0_ffn_0_conv_weight_to_fp16, x = input_139_cast_fp16)[name = tensor<string, []>("input_141_cast_fp16")];
            tensor<fp16, [1, 256, 20, 20]> input_143_cast_fp16 = silu(x = input_141_cast_fp16)[name = tensor<string, []>("input_143_cast_fp16")];
            tensor<string, []> var_540_pad_type_0 = const()[name = tensor<string, []>("op_540_pad_type_0"), val = tensor<string, []>("valid")];
            tensor<int32, [2]> var_540_strides_0 = const()[name = tensor<string, []>("op_540_strides_0"), val = tensor<int32, [2]>([1, 1])];
            tensor<int32, [4]> var_540_pad_0 = const()[name = tensor<string, []>("op_540_pad_0"), val = tensor<int32, [4]>([0, 0, 0, 0])];
            tensor<int32, [2]> var_540_dilations_0 = const()[name = tensor<string, []>("op_540_dilations_0"), val = tensor<int32, [2]>([1, 1])];
            tensor<int32, []> var_540_groups_0 = const()[name = tensor<string, []>("op_540_groups_0"), val = tensor<int32, []>(1)];
            tensor<fp16, [128, 256, 1, 1]> model_model_10_m_0_ffn_1_conv_weight_to_fp16 = const()[name = tensor<string, []>("model_model_10_m_0_ffn_1_conv_weight_to_fp16"), val = tensor<fp16, [128, 256, 1, 1]>(BLOBFILE(path = tensor<string, []>("@model_path/weights/weight.bin"), offset = tensor<uint64, []>(2530176)))];
            tensor<fp16, [128]> model_model_10_m_0_ffn_1_conv_bias_to_fp16 = const()[name = tensor<string, []>("model_model_10_m_0_ffn_1_conv_bias_to_fp16"), val = tensor<fp16, [128]>(BLOBFILE(path = tensor<string, []>("@model_path/weights/weight.bin"), offset = tensor<uint64, []>(2595776)))];
            tensor<fp16, [1, 128, 20, 20]> var_540_cast_fp16 = conv(bias = model_model_10_m_0_ffn_1_conv_bias_to_fp16, dilations = var_540_dilations_0, groups = var_540_groups_0, pad = var_540_pad_0, pad_type = var_540_pad_type_0, strides = var_540_strides_0, weight = model_model_10_m_0_ffn_1_conv_weight_to_fp16, x = input_143_cast_fp16)[name = tensor<string, []>("op_540_cast_fp16")];
            tensor<fp16, [1, 128, 20, 20]> b_1_cast_fp16 = add(x = input_139_cast_fp16, y = var_540_cast_fp16)[name = tensor<string, []>("b_1_cast_fp16")];
            tensor<bool, []> input_145_interleave_0 = const()[name = tensor<string, []>("input_145_interleave_0"), val = tensor<bool, []>(false)];
            tensor<fp16, [1, 256, 20, 20]> input_145_cast_fp16 = concat(axis = var_21, interleave = input_145_interleave_0, values = (var_461_cast_fp16_0, b_1_cast_fp16))[name = tensor<string, []>("input_145_cast_fp16")];
            tensor<string, []> input_147_pad_type_0 = const()[name = tensor<string, []>("input_147_pad_type_0"), val = tensor<string, []>("valid")];
            tensor<int32, [2]> input_147_strides_0 = const()[name = tensor<string, []>("input_147_strides_0"), val = tensor<int32, [2]>([1, 1])];
            tensor<int32, [4]> input_147_pad_0 = const()[name = tensor<string, []>("input_147_pad_0"), val = tensor<int32, [4]>([0, 0, 0, 0])];
            tensor<int32, [2]> input_147_dilations_0 = const()[name = tensor<string, []>("input_147_dilations_0"), val = tensor<int32, [2]>([1, 1])];
            tensor<int32, []> input_147_groups_0 = const()[name = tensor<string, []>("input_147_groups_0"), val = tensor<int32, []>(1)];
            tensor<fp16, [256, 256, 1, 1]> model_model_10_cv2_conv_weight_to_fp16 = const()[name = tensor<string, []>("model_model_10_cv2_conv_weight_to_fp16"), val = tensor<fp16, [256, 256, 1, 1]>(BLOBFILE(path = tensor<string, []>("@model_path/weights/weight.bin"), offset = tensor<uint64, []>(2596096)))];
            tensor<fp16, [256]> model_model_10_cv2_conv_bias_to_fp16 = const()[name = tensor<string, []>("model_model_10_cv2_conv_bias_to_fp16"), val = tensor<fp16, [256]>(BLOBFILE(path = tensor<string, []>("@model_path/weights/weight.bin"), offset = tensor<uint64, []>(2727232)))];
            tensor<fp16, [1, 256, 20, 20]> input_147_cast_fp16 = conv(bias = model_model_10_cv2_conv_bias_to_fp16, dilations = input_147_dilations_0, groups = input_147_groups_0, pad = input_147_pad_0, pad_type = input_147_pad_type_0, strides = input_147_strides_0, weight = model_model_10_cv2_conv_weight_to_fp16, x = input_145_cast_fp16)[name = tensor<string, []>("input_147_cast_fp16")];
            tensor<fp16, [1, 256, 20, 20]> input_149_cast_fp16 = silu(x = input_147_cast_fp16)[name = tensor<string, []>("input_149_cast_fp16")];
            tensor<fp32, []> var_554_scale_factor_height_0 = const()[name = tensor<string, []>("op_554_scale_factor_height_0"), val = tensor<fp32, []>(0x1p+1)];
            tensor<fp32, []> var_554_scale_factor_width_0 = const()[name = tensor<string, []>("op_554_scale_factor_width_0"), val = tensor<fp32, []>(0x1p+1)];
            tensor<fp16, [1, 256, 40, 40]> var_554_cast_fp16 = upsample_nearest_neighbor(scale_factor_height = var_554_scale_factor_height_0, scale_factor_width = var_554_scale_factor_width_0, x = input_149_cast_fp16)[name = tensor<string, []>("op_554_cast_fp16")];
            tensor<bool, []> input_151_interleave_0 = const()[name = tensor<string, []>("input_151_interleave_0"), val = tensor<bool, []>(false)];
            tensor<fp16, [1, 384, 40, 40]> input_151_cast_fp16 = concat(axis = var_21, interleave = input_151_interleave_0, values = (var_554_cast_fp16, input_81_cast_fp16))[name = tensor<string, []>("input_151_cast_fp16")];
            tensor<string, []> input_153_pad_type_0 = const()[name = tensor<string, []>("input_153_pad_type_0"), val = tensor<string, []>("valid")];
            tensor<int32, [2]> input_153_strides_0 = const()[name = tensor<string, []>("input_153_strides_0"), val = tensor<int32, [2]>([1, 1])];
            tensor<int32, [4]> input_153_pad_0 = const()[name = tensor<string, []>("input_153_pad_0"), val = tensor<int32, [4]>([0, 0, 0, 0])];
            tensor<int32, [2]> input_153_dilations_0 = const()[name = tensor<string, []>("input_153_dilations_0"), val = tensor<int32, [2]>([1, 1])];
            tensor<int32, []> input_153_groups_0 = const()[name = tensor<string, []>("input_153_groups_0"), val = tensor<int32, []>(1)];
            tensor<fp16, [128, 384, 1, 1]> model_model_13_cv1_conv_weight_to_fp16 = const()[name = tensor<string, []>("model_model_13_cv1_conv_weight_to_fp16"), val = tensor<fp16, [128, 384, 1, 1]>(BLOBFILE(path = tensor<string, []>("@model_path/weights/weight.bin"), offset = tensor<uint64, []>(2727808)))];
            tensor<fp16, [128]> model_model_13_cv1_conv_bias_to_fp16 = const()[name = tensor<string, []>("model_model_13_cv1_conv_bias_to_fp16"), val = tensor<fp16, [128]>(BLOBFILE(path = tensor<string, []>("@model_path/weights/weight.bin"), offset = tensor<uint64, []>(2826176)))];
            tensor<fp16, [1, 128, 40, 40]> input_153_cast_fp16 = conv(bias = model_model_13_cv1_conv_bias_to_fp16, dilations = input_153_dilations_0, groups = input_153_groups_0, pad = input_153_pad_0, pad_type = input_153_pad_type_0, strides = input_153_strides_0, weight = model_model_13_cv1_conv_weight_to_fp16, x = input_151_cast_fp16)[name = tensor<string, []>("input_153_cast_fp16")];
            tensor<fp16, [1, 128, 40, 40]> var_569_cast_fp16 = silu(x = input_153_cast_fp16)[name = tensor<string, []>("op_569_cast_fp16")];
            tensor<int32, [2]> var_570 = const()[name = tensor<string, []>("op_570"), val = tensor<int32, [2]>([64, 64])];
            tensor<int32, []> var_571_axis_0 = const()[name = tensor<string, []>("op_571_axis_0"), val = tensor<int32, []>(1)];
            tensor<fp16, [1, 64, 40, 40]> var_571_cast_fp16_0, tensor<fp16, [1, 64, 40, 40]> var_571_cast_fp16_1 = split(axis = var_571_axis_0, split_sizes = var_570, x = var_569_cast_fp16)[name = tensor<string, []>("op_571_cast_fp16")];
            tensor<string, []> input_157_pad_type_0 = const()[name = tensor<string, []>("input_157_pad_type_0"), val = tensor<string, []>("custom")];
            tensor<int32, [4]> input_157_pad_0 = const()[name = tensor<string, []>("input_157_pad_0"), val = tensor<int32, [4]>([1, 1, 1, 1])];
            tensor<int32, [2]> input_157_strides_0 = const()[name = tensor<string, []>("input_157_strides_0"), val = tensor<int32, [2]>([1, 1])];
            tensor<int32, [2]> input_157_dilations_0 = const()[name = tensor<string, []>("input_157_dilations_0"), val = tensor<int32, [2]>([1, 1])];
            tensor<int32, []> input_157_groups_0 = const()[name = tensor<string, []>("input_157_groups_0"), val = tensor<int32, []>(1)];
            tensor<fp16, [32, 64, 3, 3]> model_model_13_m_0_cv1_conv_weight_to_fp16 = const()[name = tensor<string, []>("model_model_13_m_0_cv1_conv_weight_to_fp16"), val = tensor<fp16, [32, 64, 3, 3]>(BLOBFILE(path = tensor<string, []>("@model_path/weights/weight.bin"), offset = tensor<uint64, []>(2826496)))];
            tensor<fp16, [32]> model_model_13_m_0_cv1_conv_bias_to_fp16 = const()[name = tensor<string, []>("model_model_13_m_0_cv1_conv_bias_to_fp16"), val = tensor<fp16, [32]>(BLOBFILE(path = tensor<string, []>("@model_path/weights/weight.bin"), offset = tensor<uint64, []>(2863424)))];
            tensor<fp16, [1, 32, 40, 40]> input_157_cast_fp16 = conv(bias = model_model_13_m_0_cv1_conv_bias_to_fp16, dilations = input_157_dilations_0, groups = input_157_groups_0, pad = input_157_pad_0, pad_type = input_157_pad_type_0, strides = input_157_strides_0, weight = model_model_13_m_0_cv1_conv_weight_to_fp16, x = var_571_cast_fp16_1)[name = tensor<string, []>("input_157_cast_fp16")];
            tensor<fp16, [1, 32, 40, 40]> input_159_cast_fp16 = silu(x = input_157_cast_fp16)[name = tensor<string, []>("input_159_cast_fp16")];
            tensor<string, []> input_161_pad_type_0 = const()[name = tensor<string, []>("input_161_pad_type_0"), val = tensor<string, []>("custom")];
            tensor<int32, [4]> input_161_pad_0 = const()[name = tensor<string, []>("input_161_pad_0"), val = tensor<int32, [4]>([1, 1, 1, 1])];
            tensor<int32, [2]> input_161_strides_0 = const()[name = tensor<string, []>("input_161_strides_0"), val = tensor<int32, [2]>([1, 1])];
            tensor<int32, [2]> input_161_dilations_0 = const()[name = tensor<string, []>("input_161_dilations_0"), val = tensor<int32, [2]>([1, 1])];
            tensor<int32, []> input_161_groups_0 = const()[name = tensor<string, []>("input_161_groups_0"), val = tensor<int32, []>(1)];
            tensor<fp16, [64, 32, 3, 3]> model_model_13_m_0_cv2_conv_weight_to_fp16 = const()[name = tensor<string, []>("model_model_13_m_0_cv2_conv_weight_to_fp16"), val = tensor<fp16, [64, 32, 3, 3]>(BLOBFILE(path = tensor<string, []>("@model_path/weights/weight.bin"), offset = tensor<uint64, []>(2863552)))];
            tensor<fp16, [64]> model_model_13_m_0_cv2_conv_bias_to_fp16 = const()[name = tensor<string, []>("model_model_13_m_0_cv2_conv_bias_to_fp16"), val = tensor<fp16, [64]>(BLOBFILE(path = tensor<string, []>("@model_path/weights/weight.bin"), offset = tensor<uint64, []>(2900480)))];
            tensor<fp16, [1, 64, 40, 40]> input_161_cast_fp16 = conv(bias = model_model_13_m_0_cv2_conv_bias_to_fp16, dilations = input_161_dilations_0, groups = input_161_groups_0, pad = input_161_pad_0, pad_type = input_161_pad_type_0, strides = input_161_strides_0, weight = model_model_13_m_0_cv2_conv_weight_to_fp16, x = input_159_cast_fp16)[name = tensor<string, []>("input_161_cast_fp16")];
            tensor<fp16, [1, 64, 40, 40]> var_593_cast_fp16 = silu(x = input_161_cast_fp16)[name = tensor<string, []>("op_593_cast_fp16")];
            tensor<fp16, [1, 64, 40, 40]> var_594_cast_fp16 = add(x = var_571_cast_fp16_1, y = var_593_cast_fp16)[name = tensor<string, []>("op_594_cast_fp16")];
            tensor<bool, []> input_163_interleave_0 = const()[name = tensor<string, []>("input_163_interleave_0"), val = tensor<bool, []>(false)];
            tensor<fp16, [1, 192, 40, 40]> input_163_cast_fp16 = concat(axis = var_21, interleave = input_163_interleave_0, values = (var_571_cast_fp16_0, var_571_cast_fp16_1, var_594_cast_fp16))[name = tensor<string, []>("input_163_cast_fp16")];
            tensor<string, []> input_165_pad_type_0 = const()[name = tensor<string, []>("input_165_pad_type_0"), val = tensor<string, []>("valid")];
            tensor<int32, [2]> input_165_strides_0 = const()[name = tensor<string, []>("input_165_strides_0"), val = tensor<int32, [2]>([1, 1])];
            tensor<int32, [4]> input_165_pad_0 = const()[name = tensor<string, []>("input_165_pad_0"), val = tensor<int32, [4]>([0, 0, 0, 0])];
            tensor<int32, [2]> input_165_dilations_0 = const()[name = tensor<string, []>("input_165_dilations_0"), val = tensor<int32, [2]>([1, 1])];
            tensor<int32, []> input_165_groups_0 = const()[name = tensor<string, []>("input_165_groups_0"), val = tensor<int32, []>(1)];
            tensor<fp16, [128, 192, 1, 1]> model_model_13_cv2_conv_weight_to_fp16 = const()[name = tensor<string, []>("model_model_13_cv2_conv_weight_to_fp16"), val = tensor<fp16, [128, 192, 1, 1]>(BLOBFILE(path = tensor<string, []>("@model_path/weights/weight.bin"), offset = tensor<uint64, []>(2900672)))];
            tensor<fp16, [128]> model_model_13_cv2_conv_bias_to_fp16 = const()[name = tensor<string, []>("model_model_13_cv2_conv_bias_to_fp16"), val = tensor<fp16, [128]>(BLOBFILE(path = tensor<string, []>("@model_path/weights/weight.bin"), offset = tensor<uint64, []>(2949888)))];
            tensor<fp16, [1, 128, 40, 40]> input_165_cast_fp16 = conv(bias = model_model_13_cv2_conv_bias_to_fp16, dilations = input_165_dilations_0, groups = input_165_groups_0, pad = input_165_pad_0, pad_type = input_165_pad_type_0, strides = input_165_strides_0, weight = model_model_13_cv2_conv_weight_to_fp16, x = input_163_cast_fp16)[name = tensor<string, []>("input_165_cast_fp16")];
            tensor<fp16, [1, 128, 40, 40]> input_167_cast_fp16 = silu(x = input_165_cast_fp16)[name = tensor<string, []>("input_167_cast_fp16")];
            tensor<fp32, []> var_607_scale_factor_height_0 = const()[name = tensor<string, []>("op_607_scale_factor_height_0"), val = tensor<fp32, []>(0x1p+1)];
            tensor<fp32, []> var_607_scale_factor_width_0 = const()[name = tensor<string, []>("op_607_scale_factor_width_0"), val = tensor<fp32, []>(0x1p+1)];
            tensor<fp16, [1, 128, 80, 80]> var_607_cast_fp16 = upsample_nearest_neighbor(scale_factor_height = var_607_scale_factor_height_0, scale_factor_width = var_607_scale_factor_width_0, x = input_167_cast_fp16)[name = tensor<string, []>("op_607_cast_fp16")];
            tensor<bool, []> input_169_interleave_0 = const()[name = tensor<string, []>("input_169_interleave_0"), val = tensor<bool, []>(false)];
            tensor<fp16, [1, 256, 80, 80]> input_169_cast_fp16 = concat(axis = var_21, interleave = input_169_interleave_0, values = (var_607_cast_fp16, input_43_cast_fp16))[name = tensor<string, []>("input_169_cast_fp16")];
            tensor<string, []> input_171_pad_type_0 = const()[name = tensor<string, []>("input_171_pad_type_0"), val = tensor<string, []>("valid")];
            tensor<int32, [2]> input_171_strides_0 = const()[name = tensor<string, []>("input_171_strides_0"), val = tensor<int32, [2]>([1, 1])];
            tensor<int32, [4]> input_171_pad_0 = const()[name = tensor<string, []>("input_171_pad_0"), val = tensor<int32, [4]>([0, 0, 0, 0])];
            tensor<int32, [2]> input_171_dilations_0 = const()[name = tensor<string, []>("input_171_dilations_0"), val = tensor<int32, [2]>([1, 1])];
            tensor<int32, []> input_171_groups_0 = const()[name = tensor<string, []>("input_171_groups_0"), val = tensor<int32, []>(1)];
            tensor<fp16, [64, 256, 1, 1]> model_model_16_cv1_conv_weight_to_fp16 = const()[name = tensor<string, []>("model_model_16_cv1_conv_weight_to_fp16"), val = tensor<fp16, [64, 256, 1, 1]>(BLOBFILE(path = tensor<string, []>("@model_path/weights/weight.bin"), offset = tensor<uint64, []>(2950208)))];
            tensor<fp16, [64]> model_model_16_cv1_conv_bias_to_fp16 = const()[name = tensor<string, []>("model_model_16_cv1_conv_bias_to_fp16"), val = tensor<fp16, [64]>(BLOBFILE(path = tensor<string, []>("@model_path/weights/weight.bin"), offset = tensor<uint64, []>(2983040)))];
            tensor<fp16, [1, 64, 80, 80]> input_171_cast_fp16 = conv(bias = model_model_16_cv1_conv_bias_to_fp16, dilations = input_171_dilations_0, groups = input_171_groups_0, pad = input_171_pad_0, pad_type = input_171_pad_type_0, strides = input_171_strides_0, weight = model_model_16_cv1_conv_weight_to_fp16, x = input_169_cast_fp16)[name = tensor<string, []>("input_171_cast_fp16")];
            tensor<fp16, [1, 64, 80, 80]> var_622_cast_fp16 = silu(x = input_171_cast_fp16)[name = tensor<string, []>("op_622_cast_fp16")];
            tensor<int32, [2]> var_623 = const()[name = tensor<string, []>("op_623"), val = tensor<int32, [2]>([32, 32])];
            tensor<int32, []> var_624_axis_0 = const()[name = tensor<string, []>("op_624_axis_0"), val = tensor<int32, []>(1)];
            tensor<fp16, [1, 32, 80, 80]> var_624_cast_fp16_0, tensor<fp16, [1, 32, 80, 80]> var_624_cast_fp16_1 = split(axis = var_624_axis_0, split_sizes = var_623, x = var_622_cast_fp16)[name = tensor<string, []>("op_624_cast_fp16")];
            tensor<string, []> input_175_pad_type_0 = const()[name = tensor<string, []>("input_175_pad_type_0"), val = tensor<string, []>("custom")];
            tensor<int32, [4]> input_175_pad_0 = const()[name = tensor<string, []>("input_175_pad_0"), val = tensor<int32, [4]>([1, 1, 1, 1])];
            tensor<int32, [2]> input_175_strides_0 = const()[name = tensor<string, []>("input_175_strides_0"), val = tensor<int32, [2]>([1, 1])];
            tensor<int32, [2]> input_175_dilations_0 = const()[name = tensor<string, []>("input_175_dilations_0"), val = tensor<int32, [2]>([1, 1])];
            tensor<int32, []> input_175_groups_0 = const()[name = tensor<string, []>("input_175_groups_0"), val = tensor<int32, []>(1)];
            tensor<fp16, [16, 32, 3, 3]> model_model_16_m_0_cv1_conv_weight_to_fp16 = const()[name = tensor<string, []>("model_model_16_m_0_cv1_conv_weight_to_fp16"), val = tensor<fp16, [16, 32, 3, 3]>(BLOBFILE(path = tensor<string, []>("@model_path/weights/weight.bin"), offset = tensor<uint64, []>(2983232)))];
            tensor<fp16, [16]> model_model_16_m_0_cv1_conv_bias_to_fp16 = const()[name = tensor<string, []>("model_model_16_m_0_cv1_conv_bias_to_fp16"), val = tensor<fp16, [16]>(BLOBFILE(path = tensor<string, []>("@model_path/weights/weight.bin"), offset = tensor<uint64, []>(2992512)))];
            tensor<fp16, [1, 16, 80, 80]> input_175_cast_fp16 = conv(bias = model_model_16_m_0_cv1_conv_bias_to_fp16, dilations = input_175_dilations_0, groups = input_175_groups_0, pad = input_175_pad_0, pad_type = input_175_pad_type_0, strides = input_175_strides_0, weight = model_model_16_m_0_cv1_conv_weight_to_fp16, x = var_624_cast_fp16_1)[name = tensor<string, []>("input_175_cast_fp16")];
            tensor<fp16, [1, 16, 80, 80]> input_177_cast_fp16 = silu(x = input_175_cast_fp16)[name = tensor<string, []>("input_177_cast_fp16")];
            tensor<string, []> input_179_pad_type_0 = const()[name = tensor<string, []>("input_179_pad_type_0"), val = tensor<string, []>("custom")];
            tensor<int32, [4]> input_179_pad_0 = const()[name = tensor<string, []>("input_179_pad_0"), val = tensor<int32, [4]>([1, 1, 1, 1])];
            tensor<int32, [2]> input_179_strides_0 = const()[name = tensor<string, []>("input_179_strides_0"), val = tensor<int32, [2]>([1, 1])];
            tensor<int32, [2]> input_179_dilations_0 = const()[name = tensor<string, []>("input_179_dilations_0"), val = tensor<int32, [2]>([1, 1])];
            tensor<int32, []> input_179_groups_0 = const()[name = tensor<string, []>("input_179_groups_0"), val = tensor<int32, []>(1)];
            tensor<fp16, [32, 16, 3, 3]> model_model_16_m_0_cv2_conv_weight_to_fp16 = const()[name = tensor<string, []>("model_model_16_m_0_cv2_conv_weight_to_fp16"), val = tensor<fp16, [32, 16, 3, 3]>(BLOBFILE(path = tensor<string, []>("@model_path/weights/weight.bin"), offset = tensor<uint64, []>(2992640)))];
            tensor<fp16, [32]> model_model_16_m_0_cv2_conv_bias_to_fp16 = const()[name = tensor<string, []>("model_model_16_m_0_cv2_conv_bias_to_fp16"), val = tensor<fp16, [32]>(BLOBFILE(path = tensor<string, []>("@model_path/weights/weight.bin"), offset = tensor<uint64, []>(3001920)))];
            tensor<fp16, [1, 32, 80, 80]> input_179_cast_fp16 = conv(bias = model_model_16_m_0_cv2_conv_bias_to_fp16, dilations = input_179_dilations_0, groups = input_179_groups_0, pad = input_179_pad_0, pad_type = input_179_pad_type_0, strides = input_179_strides_0, weight = model_model_16_m_0_cv2_conv_weight_to_fp16, x = input_177_cast_fp16)[name = tensor<string, []>("input_179_cast_fp16")];
            tensor<fp16, [1, 32, 80, 80]> var_646_cast_fp16 = silu(x = input_179_cast_fp16)[name = tensor<string, []>("op_646_cast_fp16")];
            tensor<fp16, [1, 32, 80, 80]> var_647_cast_fp16 = add(x = var_624_cast_fp16_1, y = var_646_cast_fp16)[name = tensor<string, []>("op_647_cast_fp16")];
            tensor<bool, []> input_181_interleave_0 = const()[name = tensor<string, []>("input_181_interleave_0"), val = tensor<bool, []>(false)];
            tensor<fp16, [1, 96, 80, 80]> input_181_cast_fp16 = concat(axis = var_21, interleave = input_181_interleave_0, values = (var_624_cast_fp16_0, var_624_cast_fp16_1, var_647_cast_fp16))[name = tensor<string, []>("input_181_cast_fp16")];
            tensor<string, []> input_183_pad_type_0 = const()[name = tensor<string, []>("input_183_pad_type_0"), val = tensor<string, []>("valid")];
            tensor<int32, [2]> input_183_strides_0 = const()[name = tensor<string, []>("input_183_strides_0"), val = tensor<int32, [2]>([1, 1])];
            tensor<int32, [4]> input_183_pad_0 = const()[name = tensor<string, []>("input_183_pad_0"), val = tensor<int32, [4]>([0, 0, 0, 0])];
            tensor<int32, [2]> input_183_dilations_0 = const()[name = tensor<string, []>("input_183_dilations_0"), val = tensor<int32, [2]>([1, 1])];
            tensor<int32, []> input_183_groups_0 = const()[name = tensor<string, []>("input_183_groups_0"), val = tensor<int32, []>(1)];
            tensor<fp16, [64, 96, 1, 1]> model_model_16_cv2_conv_weight_to_fp16 = const()[name = tensor<string, []>("model_model_16_cv2_conv_weight_to_fp16"), val = tensor<fp16, [64, 96, 1, 1]>(BLOBFILE(path = tensor<string, []>("@model_path/weights/weight.bin"), offset = tensor<uint64, []>(3002048)))];
            tensor<fp16, [64]> model_model_16_cv2_conv_bias_to_fp16 = const()[name = tensor<string, []>("model_model_16_cv2_conv_bias_to_fp16"), val = tensor<fp16, [64]>(BLOBFILE(path = tensor<string, []>("@model_path/weights/weight.bin"), offset = tensor<uint64, []>(3014400)))];
            tensor<fp16, [1, 64, 80, 80]> input_183_cast_fp16 = conv(bias = model_model_16_cv2_conv_bias_to_fp16, dilations = input_183_dilations_0, groups = input_183_groups_0, pad = input_183_pad_0, pad_type = input_183_pad_type_0, strides = input_183_strides_0, weight = model_model_16_cv2_conv_weight_to_fp16, x = input_181_cast_fp16)[name = tensor<string, []>("input_183_cast_fp16")];
            tensor<fp16, [1, 64, 80, 80]> input_185_cast_fp16 = silu(x = input_183_cast_fp16)[name = tensor<string, []>("input_185_cast_fp16")];
            tensor<string, []> input_187_pad_type_0 = const()[name = tensor<string, []>("input_187_pad_type_0"), val = tensor<string, []>("custom")];
            tensor<int32, [4]> input_187_pad_0 = const()[name = tensor<string, []>("input_187_pad_0"), val = tensor<int32, [4]>([1, 1, 1, 1])];
            tensor<int32, [2]> input_187_strides_0 = const()[name = tensor<string, []>("input_187_strides_0"), val = tensor<int32, [2]>([2, 2])];
            tensor<int32, [2]> input_187_dilations_0 = const()[name = tensor<string, []>("input_187_dilations_0"), val = tensor<int32, [2]>([1, 1])];
            tensor<int32, []> input_187_groups_0 = const()[name = tensor<string, []>("input_187_groups_0"), val = tensor<int32, []>(1)];
            tensor<fp16, [64, 64, 3, 3]> model_model_17_conv_weight_to_fp16 = const()[name = tensor<string, []>("model_model_17_conv_weight_to_fp16"), val = tensor<fp16, [64, 64, 3, 3]>(BLOBFILE(path = tensor<string, []>("@model_path/weights/weight.bin"), offset = tensor<uint64, []>(3014592)))];
            tensor<fp16, [64]> model_model_17_conv_bias_to_fp16 = const()[name = tensor<string, []>("model_model_17_conv_bias_to_fp16"), val = tensor<fp16, [64]>(BLOBFILE(path = tensor<string, []>("@model_path/weights/weight.bin"), offset = tensor<uint64, []>(3088384)))];
            tensor<fp16, [1, 64, 40, 40]> input_187_cast_fp16 = conv(bias = model_model_17_conv_bias_to_fp16, dilations = input_187_dilations_0, groups = input_187_groups_0, pad = input_187_pad_0, pad_type = input_187_pad_type_0, strides = input_187_strides_0, weight = model_model_17_conv_weight_to_fp16, x = input_185_cast_fp16)[name = tensor<string, []>("input_187_cast_fp16")];
            tensor<fp16, [1, 64, 40, 40]> var_667_cast_fp16 = silu(x = input_187_cast_fp16)[name = tensor<string, []>("op_667_cast_fp16")];
            tensor<bool, []> input_189_interleave_0 = const()[name = tensor<string, []>("input_189_interleave_0"), val = tensor<bool, []>(false)];
            tensor<fp16, [1, 192, 40, 40]> input_189_cast_fp16 = concat(axis = var_21, interleave = input_189_interleave_0, values = (var_667_cast_fp16, input_167_cast_fp16))[name = tensor<string, []>("input_189_cast_fp16")];
            tensor<string, []> input_191_pad_type_0 = const()[name = tensor<string, []>("input_191_pad_type_0"), val = tensor<string, []>("valid")];
            tensor<int32, [2]> input_191_strides_0 = const()[name = tensor<string, []>("input_191_strides_0"), val = tensor<int32, [2]>([1, 1])];
            tensor<int32, [4]> input_191_pad_0 = const()[name = tensor<string, []>("input_191_pad_0"), val = tensor<int32, [4]>([0, 0, 0, 0])];
            tensor<int32, [2]> input_191_dilations_0 = const()[name = tensor<string, []>("input_191_dilations_0"), val = tensor<int32, [2]>([1, 1])];
            tensor<int32, []> input_191_groups_0 = const()[name = tensor<string, []>("input_191_groups_0"), val = tensor<int32, []>(1)];
            tensor<fp16, [128, 192, 1, 1]> model_model_19_cv1_conv_weight_to_fp16 = const()[name = tensor<string, []>("model_model_19_cv1_conv_weight_to_fp16"), val = tensor<fp16, [128, 192, 1, 1]>(BLOBFILE(path = tensor<string, []>("@model_path/weights/weight.bin"), offset = tensor<uint64, []>(3088576)))];
            tensor<fp16, [128]> model_model_19_cv1_conv_bias_to_fp16 = const()[name = tensor<string, []>("model_model_19_cv1_conv_bias_to_fp16"), val = tensor<fp16, [128]>(BLOBFILE(path = tensor<string, []>("@model_path/weights/weight.bin"), offset = tensor<uint64, []>(3137792)))];
            tensor<fp16, [1, 128, 40, 40]> input_191_cast_fp16 = conv(bias = model_model_19_cv1_conv_bias_to_fp16, dilations = input_191_dilations_0, groups = input_191_groups_0, pad = input_191_pad_0, pad_type = input_191_pad_type_0, strides = input_191_strides_0, weight = model_model_19_cv1_conv_weight_to_fp16, x = input_189_cast_fp16)[name = tensor<string, []>("input_191_cast_fp16")];
            tensor<fp16, [1, 128, 40, 40]> var_682_cast_fp16 = silu(x = input_191_cast_fp16)[name = tensor<string, []>("op_682_cast_fp16")];
            tensor<int32, [2]> var_683 = const()[name = tensor<string, []>("op_683"), val = tensor<int32, [2]>([64, 64])];
            tensor<int32, []> var_684_axis_0 = const()[name = tensor<string, []>("op_684_axis_0"), val = tensor<int32, []>(1)];
            tensor<fp16, [1, 64, 40, 40]> var_684_cast_fp16_0, tensor<fp16, [1, 64, 40, 40]> var_684_cast_fp16_1 = split(axis = var_684_axis_0, split_sizes = var_683, x = var_682_cast_fp16)[name = tensor<string, []>("op_684_cast_fp16")];
            tensor<string, []> input_195_pad_type_0 = const()[name = tensor<string, []>("input_195_pad_type_0"), val = tensor<string, []>("custom")];
            tensor<int32, [4]> input_195_pad_0 = const()[name = tensor<string, []>("input_195_pad_0"), val = tensor<int32, [4]>([1, 1, 1, 1])];
            tensor<int32, [2]> input_195_strides_0 = const()[name = tensor<string, []>("input_195_strides_0"), val = tensor<int32, [2]>([1, 1])];
            tensor<int32, [2]> input_195_dilations_0 = const()[name = tensor<string, []>("input_195_dilations_0"), val = tensor<int32, [2]>([1, 1])];
            tensor<int32, []> input_195_groups_0 = const()[name = tensor<string, []>("input_195_groups_0"), val = tensor<int32, []>(1)];
            tensor<fp16, [32, 64, 3, 3]> model_model_19_m_0_cv1_conv_weight_to_fp16 = const()[name = tensor<string, []>("model_model_19_m_0_cv1_conv_weight_to_fp16"), val = tensor<fp16, [32, 64, 3, 3]>(BLOBFILE(path = tensor<string, []>("@model_path/weights/weight.bin"), offset = tensor<uint64, []>(3138112)))];
            tensor<fp16, [32]> model_model_19_m_0_cv1_conv_bias_to_fp16 = const()[name = tensor<string, []>("model_model_19_m_0_cv1_conv_bias_to_fp16"), val = tensor<fp16, [32]>(BLOBFILE(path = tensor<string, []>("@model_path/weights/weight.bin"), offset = tensor<uint64, []>(3175040)))];
            tensor<fp16, [1, 32, 40, 40]> input_195_cast_fp16 = conv(bias = model_model_19_m_0_cv1_conv_bias_to_fp16, dilations = input_195_dilations_0, groups = input_195_groups_0, pad = input_195_pad_0, pad_type = input_195_pad_type_0, strides = input_195_strides_0, weight = model_model_19_m_0_cv1_conv_weight_to_fp16, x = var_684_cast_fp16_1)[name = tensor<string, []>("input_195_cast_fp16")];
            tensor<fp16, [1, 32, 40, 40]> input_197_cast_fp16 = silu(x = input_195_cast_fp16)[name = tensor<string, []>("input_197_cast_fp16")];
            tensor<string, []> input_199_pad_type_0 = const()[name = tensor<string, []>("input_199_pad_type_0"), val = tensor<string, []>("custom")];
            tensor<int32, [4]> input_199_pad_0 = const()[name = tensor<string, []>("input_199_pad_0"), val = tensor<int32, [4]>([1, 1, 1, 1])];
            tensor<int32, [2]> input_199_strides_0 = const()[name = tensor<string, []>("input_199_strides_0"), val = tensor<int32, [2]>([1, 1])];
            tensor<int32, [2]> input_199_dilations_0 = const()[name = tensor<string, []>("input_199_dilations_0"), val = tensor<int32, [2]>([1, 1])];
            tensor<int32, []> input_199_groups_0 = const()[name = tensor<string, []>("input_199_groups_0"), val = tensor<int32, []>(1)];
            tensor<fp16, [64, 32, 3, 3]> model_model_19_m_0_cv2_conv_weight_to_fp16 = const()[name = tensor<string, []>("model_model_19_m_0_cv2_conv_weight_to_fp16"), val = tensor<fp16, [64, 32, 3, 3]>(BLOBFILE(path = tensor<string, []>("@model_path/weights/weight.bin"), offset = tensor<uint64, []>(3175168)))];
            tensor<fp16, [64]> model_model_19_m_0_cv2_conv_bias_to_fp16 = const()[name = tensor<string, []>("model_model_19_m_0_cv2_conv_bias_to_fp16"), val = tensor<fp16, [64]>(BLOBFILE(path = tensor<string, []>("@model_path/weights/weight.bin"), offset = tensor<uint64, []>(3212096)))];
            tensor<fp16, [1, 64, 40, 40]> input_199_cast_fp16 = conv(bias = model_model_19_m_0_cv2_conv_bias_to_fp16, dilations = input_199_dilations_0, groups = input_199_groups_0, pad = input_199_pad_0, pad_type = input_199_pad_type_0, strides = input_199_strides_0, weight = model_model_19_m_0_cv2_conv_weight_to_fp16, x = input_197_cast_fp16)[name = tensor<string, []>("input_199_cast_fp16")];
            tensor<fp16, [1, 64, 40, 40]> var_706_cast_fp16 = silu(x = input_199_cast_fp16)[name = tensor<string, []>("op_706_cast_fp16")];
            tensor<fp16, [1, 64, 40, 40]> var_707_cast_fp16 = add(x = var_684_cast_fp16_1, y = var_706_cast_fp16)[name = tensor<string, []>("op_707_cast_fp16")];
            tensor<bool, []> input_201_interleave_0 = const()[name = tensor<string, []>("input_201_interleave_0"), val = tensor<bool, []>(false)];
            tensor<fp16, [1, 192, 40, 40]> input_201_cast_fp16 = concat(axis = var_21, interleave = input_201_interleave_0, values = (var_684_cast_fp16_0, var_684_cast_fp16_1, var_707_cast_fp16))[name = tensor<string, []>("input_201_cast_fp16")];
            tensor<string, []> input_203_pad_type_0 = const()[name = tensor<string, []>("input_203_pad_type_0"), val = tensor<string, []>("valid")];
            tensor<int32, [2]> input_203_strides_0 = const()[name = tensor<string, []>("input_203_strides_0"), val = tensor<int32, [2]>([1, 1])];
            tensor<int32, [4]> input_203_pad_0 = const()[name = tensor<string, []>("input_203_pad_0"), val = tensor<int32, [4]>([0, 0, 0, 0])];
            tensor<int32, [2]> input_203_dilations_0 = const()[name = tensor<string, []>("input_203_dilations_0"), val = tensor<int32, [2]>([1, 1])];
            tensor<int32, []> input_203_groups_0 = const()[name = tensor<string, []>("input_203_groups_0"), val = tensor<int32, []>(1)];
            tensor<fp16, [128, 192, 1, 1]> model_model_19_cv2_conv_weight_to_fp16 = const()[name = tensor<string, []>("model_model_19_cv2_conv_weight_to_fp16"), val = tensor<fp16, [128, 192, 1, 1]>(BLOBFILE(path = tensor<string, []>("@model_path/weights/weight.bin"), offset = tensor<uint64, []>(3212288)))];
            tensor<fp16, [128]> model_model_19_cv2_conv_bias_to_fp16 = const()[name = tensor<string, []>("model_model_19_cv2_conv_bias_to_fp16"), val = tensor<fp16, [128]>(BLOBFILE(path = tensor<string, []>("@model_path/weights/weight.bin"), offset = tensor<uint64, []>(3261504)))];
            tensor<fp16, [1, 128, 40, 40]> input_203_cast_fp16 = conv(bias = model_model_19_cv2_conv_bias_to_fp16, dilations = input_203_dilations_0, groups = input_203_groups_0, pad = input_203_pad_0, pad_type = input_203_pad_type_0, strides = input_203_strides_0, weight = model_model_19_cv2_conv_weight_to_fp16, x = input_201_cast_fp16)[name = tensor<string, []>("input_203_cast_fp16")];
            tensor<fp16, [1, 128, 40, 40]> input_205_cast_fp16 = silu(x = input_203_cast_fp16)[name = tensor<string, []>("input_205_cast_fp16")];
            tensor<string, []> input_207_pad_type_0 = const()[name = tensor<string, []>("input_207_pad_type_0"), val = tensor<string, []>("custom")];
            tensor<int32, [4]> input_207_pad_0 = const()[name = tensor<string, []>("input_207_pad_0"), val = tensor<int32, [4]>([1, 1, 1, 1])];
            tensor<int32, [2]> input_207_strides_0 = const()[name = tensor<string, []>("input_207_strides_0"), val = tensor<int32, [2]>([2, 2])];
            tensor<int32, [2]> input_207_dilations_0 = const()[name = tensor<string, []>("input_207_dilations_0"), val = tensor<int32, [2]>([1, 1])];
            tensor<int32, []> input_207_groups_0 = const()[name = tensor<string, []>("input_207_groups_0"), val = tensor<int32, []>(1)];
            tensor<fp16, [128, 128, 3, 3]> model_model_20_conv_weight_to_fp16 = const()[name = tensor<string, []>("model_model_20_conv_weight_to_fp16"), val = tensor<fp16, [128, 128, 3, 3]>(BLOBFILE(path = tensor<string, []>("@model_path/weights/weight.bin"), offset = tensor<uint64, []>(3261824)))];
            tensor<fp16, [128]> model_model_20_conv_bias_to_fp16 = const()[name = tensor<string, []>("model_model_20_conv_bias_to_fp16"), val = tensor<fp16, [128]>(BLOBFILE(path = tensor<string, []>("@model_path/weights/weight.bin"), offset = tensor<uint64, []>(3556800)))];
            tensor<fp16, [1, 128, 20, 20]> input_207_cast_fp16 = conv(bias = model_model_20_conv_bias_to_fp16, dilations = input_207_dilations_0, groups = input_207_groups_0, pad = input_207_pad_0, pad_type = input_207_pad_type_0, strides = input_207_strides_0, weight = model_model_20_conv_weight_to_fp16, x = input_205_cast_fp16)[name = tensor<string, []>("input_207_cast_fp16")];
            tensor<fp16, [1, 128, 20, 20]> var_727_cast_fp16 = silu(x = input_207_cast_fp16)[name = tensor<string, []>("op_727_cast_fp16")];
            tensor<bool, []> input_209_interleave_0 = const()[name = tensor<string, []>("input_209_interleave_0"), val = tensor<bool, []>(false)];
            tensor<fp16, [1, 384, 20, 20]> input_209_cast_fp16 = concat(axis = var_21, interleave = input_209_interleave_0, values = (var_727_cast_fp16, input_149_cast_fp16))[name = tensor<string, []>("input_209_cast_fp16")];
            tensor<string, []> input_211_pad_type_0 = const()[name = tensor<string, []>("input_211_pad_type_0"), val = tensor<string, []>("valid")];
            tensor<int32, [2]> input_211_strides_0 = const()[name = tensor<string, []>("input_211_strides_0"), val = tensor<int32, [2]>([1, 1])];
            tensor<int32, [4]> input_211_pad_0 = const()[name = tensor<string, []>("input_211_pad_0"), val = tensor<int32, [4]>([0, 0, 0, 0])];
            tensor<int32, [2]> input_211_dilations_0 = const()[name = tensor<string, []>("input_211_dilations_0"), val = tensor<int32, [2]>([1, 1])];
            tensor<int32, []> input_211_groups_0 = const()[name = tensor<string, []>("input_211_groups_0"), val = tensor<int32, []>(1)];
            tensor<fp16, [256, 384, 1, 1]> model_model_22_cv1_conv_weight_to_fp16 = const()[name = tensor<string, []>("model_model_22_cv1_conv_weight_to_fp16"), val = tensor<fp16, [256, 384, 1, 1]>(BLOBFILE(path = tensor<string, []>("@model_path/weights/weight.bin"), offset = tensor<uint64, []>(3557120)))];
            tensor<fp16, [256]> model_model_22_cv1_conv_bias_to_fp16 = const()[name = tensor<string, []>("model_model_22_cv1_conv_bias_to_fp16"), val = tensor<fp16, [256]>(BLOBFILE(path = tensor<string, []>("@model_path/weights/weight.bin"), offset = tensor<uint64, []>(3753792)))];
            tensor<fp16, [1, 256, 20, 20]> input_211_cast_fp16 = conv(bias = model_model_22_cv1_conv_bias_to_fp16, dilations = input_211_dilations_0, groups = input_211_groups_0, pad = input_211_pad_0, pad_type = input_211_pad_type_0, strides = input_211_strides_0, weight = model_model_22_cv1_conv_weight_to_fp16, x = input_209_cast_fp16)[name = tensor<string, []>("input_211_cast_fp16")];
            tensor<fp16, [1, 256, 20, 20]> var_742_cast_fp16 = silu(x = input_211_cast_fp16)[name = tensor<string, []>("op_742_cast_fp16")];
            tensor<int32, [2]> var_743 = const()[name = tensor<string, []>("op_743"), val = tensor<int32, [2]>([128, 128])];
            tensor<int32, []> var_744_axis_0 = const()[name = tensor<string, []>("op_744_axis_0"), val = tensor<int32, []>(1)];
            tensor<fp16, [1, 128, 20, 20]> var_744_cast_fp16_0, tensor<fp16, [1, 128, 20, 20]> var_744_cast_fp16_1 = split(axis = var_744_axis_0, split_sizes = var_743, x = var_742_cast_fp16)[name = tensor<string, []>("op_744_cast_fp16")];
            tensor<string, []> input_215_pad_type_0 = const()[name = tensor<string, []>("input_215_pad_type_0"), val = tensor<string, []>("valid")];
            tensor<int32, [2]> input_215_strides_0 = const()[name = tensor<string, []>("input_215_strides_0"), val = tensor<int32, [2]>([1, 1])];
            tensor<int32, [4]> input_215_pad_0 = const()[name = tensor<string, []>("input_215_pad_0"), val = tensor<int32, [4]>([0, 0, 0, 0])];
            tensor<int32, [2]> input_215_dilations_0 = const()[name = tensor<string, []>("input_215_dilations_0"), val = tensor<int32, [2]>([1, 1])];
            tensor<int32, []> input_215_groups_0 = const()[name = tensor<string, []>("input_215_groups_0"), val = tensor<int32, []>(1)];
            tensor<fp16, [64, 128, 1, 1]> model_model_22_m_0_cv1_conv_weight_to_fp16 = const()[name = tensor<string, []>("model_model_22_m_0_cv1_conv_weight_to_fp16"), val = tensor<fp16, [64, 128, 1, 1]>(BLOBFILE(path = tensor<string, []>("@model_path/weights/weight.bin"), offset = tensor<uint64, []>(3754368)))];
            tensor<fp16, [64]> model_model_22_m_0_cv1_conv_bias_to_fp16 = const()[name = tensor<string, []>("model_model_22_m_0_cv1_conv_bias_to_fp16"), val = tensor<fp16, [64]>(BLOBFILE(path = tensor<string, []>("@model_path/weights/weight.bin"), offset = tensor<uint64, []>(3770816)))];
            tensor<fp16, [1, 64, 20, 20]> input_215_cast_fp16 = conv(bias = model_model_22_m_0_cv1_conv_bias_to_fp16, dilations = input_215_dilations_0, groups = input_215_groups_0, pad = input_215_pad_0, pad_type = input_215_pad_type_0, strides = input_215_strides_0, weight = model_model_22_m_0_cv1_conv_weight_to_fp16, x = var_744_cast_fp16_1)[name = tensor<string, []>("input_215_cast_fp16")];
            tensor<fp16, [1, 64, 20, 20]> input_217_cast_fp16 = silu(x = input_215_cast_fp16)[name = tensor<string, []>("input_217_cast_fp16")];
            tensor<string, []> input_219_pad_type_0 = const()[name = tensor<string, []>("input_219_pad_type_0"), val = tensor<string, []>("custom")];
            tensor<int32, [4]> input_219_pad_0 = const()[name = tensor<string, []>("input_219_pad_0"), val = tensor<int32, [4]>([1, 1, 1, 1])];
            tensor<int32, [2]> input_219_strides_0 = const()[name = tensor<string, []>("input_219_strides_0"), val = tensor<int32, [2]>([1, 1])];
            tensor<int32, [2]> input_219_dilations_0 = const()[name = tensor<string, []>("input_219_dilations_0"), val = tensor<int32, [2]>([1, 1])];
            tensor<int32, []> input_219_groups_0 = const()[name = tensor<string, []>("input_219_groups_0"), val = tensor<int32, []>(1)];
            tensor<fp16, [64, 64, 3, 3]> model_model_22_m_0_m_0_cv1_conv_weight_to_fp16 = const()[name = tensor<string, []>("model_model_22_m_0_m_0_cv1_conv_weight_to_fp16"), val = tensor<fp16, [64, 64, 3, 3]>(BLOBFILE(path = tensor<string, []>("@model_path/weights/weight.bin"), offset = tensor<uint64, []>(3771008)))];
            tensor<fp16, [64]> model_model_22_m_0_m_0_cv1_conv_bias_to_fp16 = const()[name = tensor<string, []>("model_model_22_m_0_m_0_cv1_conv_bias_to_fp16"), val = tensor<fp16, [64]>(BLOBFILE(path = tensor<string, []>("@model_path/weights/weight.bin"), offset = tensor<uint64, []>(3844800)))];
            tensor<fp16, [1, 64, 20, 20]> input_219_cast_fp16 = conv(bias = model_model_22_m_0_m_0_cv1_conv_bias_to_fp16, dilations = input_219_dilations_0, groups = input_219_groups_0, pad = input_219_pad_0, pad_type = input_219_pad_type_0, strides = input_219_strides_0, weight = model_model_22_m_0_m_0_cv1_conv_weight_to_fp16, x = input_217_cast_fp16)[name = tensor<string, []>("input_219_cast_fp16")];
            tensor<fp16, [1, 64, 20, 20]> input_221_cast_fp16 = silu(x = input_219_cast_fp16)[name = tensor<string, []>("input_221_cast_fp16")];
            tensor<string, []> input_223_pad_type_0 = const()[name = tensor<string, []>("input_223_pad_type_0"), val = tensor<string, []>("custom")];
            tensor<int32, [4]> input_223_pad_0 = const()[name = tensor<string, []>("input_223_pad_0"), val = tensor<int32, [4]>([1, 1, 1, 1])];
            tensor<int32, [2]> input_223_strides_0 = const()[name = tensor<string, []>("input_223_strides_0"), val = tensor<int32, [2]>([1, 1])];
            tensor<int32, [2]> input_223_dilations_0 = const()[name = tensor<string, []>("input_223_dilations_0"), val = tensor<int32, [2]>([1, 1])];
            tensor<int32, []> input_223_groups_0 = const()[name = tensor<string, []>("input_223_groups_0"), val = tensor<int32, []>(1)];
            tensor<fp16, [64, 64, 3, 3]> model_model_22_m_0_m_0_cv2_conv_weight_to_fp16 = const()[name = tensor<string, []>("model_model_22_m_0_m_0_cv2_conv_weight_to_fp16"), val = tensor<fp16, [64, 64, 3, 3]>(BLOBFILE(path = tensor<string, []>("@model_path/weights/weight.bin"), offset = tensor<uint64, []>(3844992)))];
            tensor<fp16, [64]> model_model_22_m_0_m_0_cv2_conv_bias_to_fp16 = const()[name = tensor<string, []>("model_model_22_m_0_m_0_cv2_conv_bias_to_fp16"), val = tensor<fp16, [64]>(BLOBFILE(path = tensor<string, []>("@model_path/weights/weight.bin"), offset = tensor<uint64, []>(3918784)))];
            tensor<fp16, [1, 64, 20, 20]> input_223_cast_fp16 = conv(bias = model_model_22_m_0_m_0_cv2_conv_bias_to_fp16, dilations = input_223_dilations_0, groups = input_223_groups_0, pad = input_223_pad_0, pad_type = input_223_pad_type_0, strides = input_223_strides_0, weight = model_model_22_m_0_m_0_cv2_conv_weight_to_fp16, x = input_221_cast_fp16)[name = tensor<string, []>("input_223_cast_fp16")];
            tensor<fp16, [1, 64, 20, 20]> var_781_cast_fp16 = silu(x = input_223_cast_fp16)[name = tensor<string, []>("op_781_cast_fp16")];
            tensor<fp16, [1, 64, 20, 20]> input_225_cast_fp16 = add(x = input_217_cast_fp16, y = var_781_cast_fp16)[name = tensor<string, []>("input_225_cast_fp16")];
            tensor<string, []> input_227_pad_type_0 = const()[name = tensor<string, []>("input_227_pad_type_0"), val = tensor<string, []>("custom")];
            tensor<int32, [4]> input_227_pad_0 = const()[name = tensor<string, []>("input_227_pad_0"), val = tensor<int32, [4]>([1, 1, 1, 1])];
            tensor<int32, [2]> input_227_strides_0 = const()[name = tensor<string, []>("input_227_strides_0"), val = tensor<int32, [2]>([1, 1])];
            tensor<int32, [2]> input_227_dilations_0 = const()[name = tensor<string, []>("input_227_dilations_0"), val = tensor<int32, [2]>([1, 1])];
            tensor<int32, []> input_227_groups_0 = const()[name = tensor<string, []>("input_227_groups_0"), val = tensor<int32, []>(1)];
            tensor<fp16, [64, 64, 3, 3]> model_model_22_m_0_m_1_cv1_conv_weight_to_fp16 = const()[name = tensor<string, []>("model_model_22_m_0_m_1_cv1_conv_weight_to_fp16"), val = tensor<fp16, [64, 64, 3, 3]>(BLOBFILE(path = tensor<string, []>("@model_path/weights/weight.bin"), offset = tensor<uint64, []>(3918976)))];
            tensor<fp16, [64]> model_model_22_m_0_m_1_cv1_conv_bias_to_fp16 = const()[name = tensor<string, []>("model_model_22_m_0_m_1_cv1_conv_bias_to_fp16"), val = tensor<fp16, [64]>(BLOBFILE(path = tensor<string, []>("@model_path/weights/weight.bin"), offset = tensor<uint64, []>(3992768)))];
            tensor<fp16, [1, 64, 20, 20]> input_227_cast_fp16 = conv(bias = model_model_22_m_0_m_1_cv1_conv_bias_to_fp16, dilations = input_227_dilations_0, groups = input_227_groups_0, pad = input_227_pad_0, pad_type = input_227_pad_type_0, strides = input_227_strides_0, weight = model_model_22_m_0_m_1_cv1_conv_weight_to_fp16, x = input_225_cast_fp16)[name = tensor<string, []>("input_227_cast_fp16")];
            tensor<fp16, [1, 64, 20, 20]> input_229_cast_fp16 = silu(x = input_227_cast_fp16)[name = tensor<string, []>("input_229_cast_fp16")];
            tensor<string, []> input_231_pad_type_0 = const()[name = tensor<string, []>("input_231_pad_type_0"), val = tensor<string, []>("custom")];
            tensor<int32, [4]> input_231_pad_0 = const()[name = tensor<string, []>("input_231_pad_0"), val = tensor<int32, [4]>([1, 1, 1, 1])];
            tensor<int32, [2]> input_231_strides_0 = const()[name = tensor<string, []>("input_231_strides_0"), val = tensor<int32, [2]>([1, 1])];
            tensor<int32, [2]> input_231_dilations_0 = const()[name = tensor<string, []>("input_231_dilations_0"), val = tensor<int32, [2]>([1, 1])];
            tensor<int32, []> input_231_groups_0 = const()[name = tensor<string, []>("input_231_groups_0"), val = tensor<int32, []>(1)];
            tensor<fp16, [64, 64, 3, 3]> model_model_22_m_0_m_1_cv2_conv_weight_to_fp16 = const()[name = tensor<string, []>("model_model_22_m_0_m_1_cv2_conv_weight_to_fp16"), val = tensor<fp16, [64, 64, 3, 3]>(BLOBFILE(path = tensor<string, []>("@model_path/weights/weight.bin"), offset = tensor<uint64, []>(3992960)))];
            tensor<fp16, [64]> model_model_22_m_0_m_1_cv2_conv_bias_to_fp16 = const()[name = tensor<string, []>("model_model_22_m_0_m_1_cv2_conv_bias_to_fp16"), val = tensor<fp16, [64]>(BLOBFILE(path = tensor<string, []>("@model_path/weights/weight.bin"), offset = tensor<uint64, []>(4066752)))];
            tensor<fp16, [1, 64, 20, 20]> input_231_cast_fp16 = conv(bias = model_model_22_m_0_m_1_cv2_conv_bias_to_fp16, dilations = input_231_dilations_0, groups = input_231_groups_0, pad = input_231_pad_0, pad_type = input_231_pad_type_0, strides = input_231_strides_0, weight = model_model_22_m_0_m_1_cv2_conv_weight_to_fp16, x = input_229_cast_fp16)[name = tensor<string, []>("input_231_cast_fp16")];
            tensor<fp16, [1, 64, 20, 20]> var_802_cast_fp16 = silu(x = input_231_cast_fp16)[name = tensor<string, []>("op_802_cast_fp16")];
            tensor<fp16, [1, 64, 20, 20]> var_803_cast_fp16 = add(x = input_225_cast_fp16, y = var_802_cast_fp16)[name = tensor<string, []>("op_803_cast_fp16")];
            tensor<string, []> input_233_pad_type_0 = const()[name = tensor<string, []>("input_233_pad_type_0"), val = tensor<string, []>("valid")];
            tensor<int32, [2]> input_233_strides_0 = const()[name = tensor<string, []>("input_233_strides_0"), val = tensor<int32, [2]>([1, 1])];
            tensor<int32, [4]> input_233_pad_0 = const()[name = tensor<string, []>("input_233_pad_0"), val = tensor<int32, [4]>([0, 0, 0, 0])];
            tensor<int32, [2]> input_233_dilations_0 = const()[name = tensor<string, []>("input_233_dilations_0"), val = tensor<int32, [2]>([1, 1])];
            tensor<int32, []> input_233_groups_0 = const()[name = tensor<string, []>("input_233_groups_0"), val = tensor<int32, []>(1)];
            tensor<fp16, [64, 128, 1, 1]> model_model_22_m_0_cv2_conv_weight_to_fp16 = const()[name = tensor<string, []>("model_model_22_m_0_cv2_conv_weight_to_fp16"), val = tensor<fp16, [64, 128, 1, 1]>(BLOBFILE(path = tensor<string, []>("@model_path/weights/weight.bin"), offset = tensor<uint64, []>(4066944)))];
            tensor<fp16, [64]> model_model_22_m_0_cv2_conv_bias_to_fp16 = const()[name = tensor<string, []>("model_model_22_m_0_cv2_conv_bias_to_fp16"), val = tensor<fp16, [64]>(BLOBFILE(path = tensor<string, []>("@model_path/weights/weight.bin"), offset = tensor<uint64, []>(4083392)))];
            tensor<fp16, [1, 64, 20, 20]> input_233_cast_fp16 = conv(bias = model_model_22_m_0_cv2_conv_bias_to_fp16, dilations = input_233_dilations_0, groups = input_233_groups_0, pad = input_233_pad_0, pad_type = input_233_pad_type_0, strides = input_233_strides_0, weight = model_model_22_m_0_cv2_conv_weight_to_fp16, x = var_744_cast_fp16_1)[name = tensor<string, []>("input_233_cast_fp16")];
            tensor<fp16, [1, 64, 20, 20]> var_812_cast_fp16 = silu(x = input_233_cast_fp16)[name = tensor<string, []>("op_812_cast_fp16")];
            tensor<bool, []> input_235_interleave_0 = const()[name = tensor<string, []>("input_235_interleave_0"), val = tensor<bool, []>(false)];
            tensor<fp16, [1, 128, 20, 20]> input_235_cast_fp16 = concat(axis = var_21, interleave = input_235_interleave_0, values = (var_803_cast_fp16, var_812_cast_fp16))[name = tensor<string, []>("input_235_cast_fp16")];
            tensor<string, []> input_237_pad_type_0 = const()[name = tensor<string, []>("input_237_pad_type_0"), val = tensor<string, []>("valid")];
            tensor<int32, [2]> input_237_strides_0 = const()[name = tensor<string, []>("input_237_strides_0"), val = tensor<int32, [2]>([1, 1])];
            tensor<int32, [4]> input_237_pad_0 = const()[name = tensor<string, []>("input_237_pad_0"), val = tensor<int32, [4]>([0, 0, 0, 0])];
            tensor<int32, [2]> input_237_dilations_0 = const()[name = tensor<string, []>("input_237_dilations_0"), val = tensor<int32, [2]>([1, 1])];
            tensor<int32, []> input_237_groups_0 = const()[name = tensor<string, []>("input_237_groups_0"), val = tensor<int32, []>(1)];
            tensor<fp16, [128, 128, 1, 1]> model_model_22_m_0_cv3_conv_weight_to_fp16 = const()[name = tensor<string, []>("model_model_22_m_0_cv3_conv_weight_to_fp16"), val = tensor<fp16, [128, 128, 1, 1]>(BLOBFILE(path = tensor<string, []>("@model_path/weights/weight.bin"), offset = tensor<uint64, []>(4083584)))];
            tensor<fp16, [128]> model_model_22_m_0_cv3_conv_bias_to_fp16 = const()[name = tensor<string, []>("model_model_22_m_0_cv3_conv_bias_to_fp16"), val = tensor<fp16, [128]>(BLOBFILE(path = tensor<string, []>("@model_path/weights/weight.bin"), offset = tensor<uint64, []>(4116416)))];
            tensor<fp16, [1, 128, 20, 20]> input_237_cast_fp16 = conv(bias = model_model_22_m_0_cv3_conv_bias_to_fp16, dilations = input_237_dilations_0, groups = input_237_groups_0, pad = input_237_pad_0, pad_type = input_237_pad_type_0, strides = input_237_strides_0, weight = model_model_22_m_0_cv3_conv_weight_to_fp16, x = input_235_cast_fp16)[name = tensor<string, []>("input_237_cast_fp16")];
            tensor<fp16, [1, 128, 20, 20]> var_823_cast_fp16 = silu(x = input_237_cast_fp16)[name = tensor<string, []>("op_823_cast_fp16")];
            tensor<bool, []> input_239_interleave_0 = const()[name = tensor<string, []>("input_239_interleave_0"), val = tensor<bool, []>(false)];
            tensor<fp16, [1, 384, 20, 20]> input_239_cast_fp16 = concat(axis = var_21, interleave = input_239_interleave_0, values = (var_744_cast_fp16_0, var_744_cast_fp16_1, var_823_cast_fp16))[name = tensor<string, []>("input_239_cast_fp16")];
            tensor<string, []> input_241_pad_type_0 = const()[name = tensor<string, []>("input_241_pad_type_0"), val = tensor<string, []>("valid")];
            tensor<int32, [2]> input_241_strides_0 = const()[name = tensor<string, []>("input_241_strides_0"), val = tensor<int32, [2]>([1, 1])];
            tensor<int32, [4]> input_241_pad_0 = const()[name = tensor<string, []>("input_241_pad_0"), val = tensor<int32, [4]>([0, 0, 0, 0])];
            tensor<int32, [2]> input_241_dilations_0 = const()[name = tensor<string, []>("input_241_dilations_0"), val = tensor<int32, [2]>([1, 1])];
            tensor<int32, []> input_241_groups_0 = const()[name = tensor<string, []>("input_241_groups_0"), val = tensor<int32, []>(1)];
            tensor<fp16, [256, 384, 1, 1]> model_model_22_cv2_conv_weight_to_fp16 = const()[name = tensor<string, []>("model_model_22_cv2_conv_weight_to_fp16"), val = tensor<fp16, [256, 384, 1, 1]>(BLOBFILE(path = tensor<string, []>("@model_path/weights/weight.bin"), offset = tensor<uint64, []>(4116736)))];
            tensor<fp16, [256]> model_model_22_cv2_conv_bias_to_fp16 = const()[name = tensor<string, []>("model_model_22_cv2_conv_bias_to_fp16"), val = tensor<fp16, [256]>(BLOBFILE(path = tensor<string, []>("@model_path/weights/weight.bin"), offset = tensor<uint64, []>(4313408)))];
            tensor<fp16, [1, 256, 20, 20]> input_241_cast_fp16 = conv(bias = model_model_22_cv2_conv_bias_to_fp16, dilations = input_241_dilations_0, groups = input_241_groups_0, pad = input_241_pad_0, pad_type = input_241_pad_type_0, strides = input_241_strides_0, weight = model_model_22_cv2_conv_weight_to_fp16, x = input_239_cast_fp16)[name = tensor<string, []>("input_241_cast_fp16")];
            tensor<fp16, [1, 256, 20, 20]> input_259_cast_fp16 = silu(x = input_241_cast_fp16)[name = tensor<string, []>("input_259_cast_fp16")];
            tensor<string, []> input_243_pad_type_0 = const()[name = tensor<string, []>("input_243_pad_type_0"), val = tensor<string, []>("custom")];
            tensor<int32, [4]> input_243_pad_0 = const()[name = tensor<string, []>("input_243_pad_0"), val = tensor<int32, [4]>([1, 1, 1, 1])];
            tensor<int32, [2]> input_243_strides_0 = const()[name = tensor<string, []>("input_243_strides_0"), val = tensor<int32, [2]>([1, 1])];
            tensor<int32, [2]> input_243_dilations_0 = const()[name = tensor<string, []>("input_243_dilations_0"), val = tensor<int32, [2]>([1, 1])];
            tensor<int32, []> input_243_groups_0 = const()[name = tensor<string, []>("input_243_groups_0"), val = tensor<int32, []>(1)];
            tensor<fp16, [64, 64, 3, 3]> model_model_23_cv2_0_0_conv_weight_to_fp16 = const()[name = tensor<string, []>("model_model_23_cv2_0_0_conv_weight_to_fp16"), val = tensor<fp16, [64, 64, 3, 3]>(BLOBFILE(path = tensor<string, []>("@model_path/weights/weight.bin"), offset = tensor<uint64, []>(4313984)))];
            tensor<fp16, [64]> model_model_23_cv2_0_0_conv_bias_to_fp16 = const()[name = tensor<string, []>("model_model_23_cv2_0_0_conv_bias_to_fp16"), val = tensor<fp16, [64]>(BLOBFILE(path = tensor<string, []>("@model_path/weights/weight.bin"), offset = tensor<uint64, []>(4387776)))];
            tensor<fp16, [1, 64, 80, 80]> input_243_cast_fp16 = conv(bias = model_model_23_cv2_0_0_conv_bias_to_fp16, dilations = input_243_dilations_0, groups = input_243_groups_0, pad = input_243_pad_0, pad_type = input_243_pad_type_0, strides = input_243_strides_0, weight = model_model_23_cv2_0_0_conv_weight_to_fp16, x = input_185_cast_fp16)[name = tensor<string, []>("input_243_cast_fp16")];
            tensor<fp16, [1, 64, 80, 80]> input_245_cast_fp16 = silu(x = input_243_cast_fp16)[name = tensor<string, []>("input_245_cast_fp16")];
            tensor<string, []> input_247_pad_type_0 = const()[name = tensor<string, []>("input_247_pad_type_0"), val = tensor<string, []>("custom")];
            tensor<int32, [4]> input_247_pad_0 = const()[name = tensor<string, []>("input_247_pad_0"), val = tensor<int32, [4]>([1, 1, 1, 1])];
            tensor<int32, [2]> input_247_strides_0 = const()[name = tensor<string, []>("input_247_strides_0"), val = tensor<int32, [2]>([1, 1])];
            tensor<int32, [2]> input_247_dilations_0 = const()[name = tensor<string, []>("input_247_dilations_0"), val = tensor<int32, [2]>([1, 1])];
            tensor<int32, []> input_247_groups_0 = const()[name = tensor<string, []>("input_247_groups_0"), val = tensor<int32, []>(1)];
            tensor<fp16, [64, 64, 3, 3]> model_model_23_cv2_0_1_conv_weight_to_fp16 = const()[name = tensor<string, []>("model_model_23_cv2_0_1_conv_weight_to_fp16"), val = tensor<fp16, [64, 64, 3, 3]>(BLOBFILE(path = tensor<string, []>("@model_path/weights/weight.bin"), offset = tensor<uint64, []>(4387968)))];
            tensor<fp16, [64]> model_model_23_cv2_0_1_conv_bias_to_fp16 = const()[name = tensor<string, []>("model_model_23_cv2_0_1_conv_bias_to_fp16"), val = tensor<fp16, [64]>(BLOBFILE(path = tensor<string, []>("@model_path/weights/weight.bin"), offset = tensor<uint64, []>(4461760)))];
            tensor<fp16, [1, 64, 80, 80]> input_247_cast_fp16 = conv(bias = model_model_23_cv2_0_1_conv_bias_to_fp16, dilations = input_247_dilations_0, groups = input_247_groups_0, pad = input_247_pad_0, pad_type = input_247_pad_type_0, strides = input_247_strides_0, weight = model_model_23_cv2_0_1_conv_weight_to_fp16, x = input_245_cast_fp16)[name = tensor<string, []>("input_247_cast_fp16")];
            tensor<fp16, [1, 64, 80, 80]> input_249_cast_fp16 = silu(x = input_247_cast_fp16)[name = tensor<string, []>("input_249_cast_fp16")];
            tensor<string, []> var_876_pad_type_0 = const()[name = tensor<string, []>("op_876_pad_type_0"), val = tensor<string, []>("valid")];
            tensor<int32, [2]> var_876_strides_0 = const()[name = tensor<string, []>("op_876_strides_0"), val = tensor<int32, [2]>([1, 1])];
            tensor<int32, [4]> var_876_pad_0 = const()[name = tensor<string, []>("op_876_pad_0"), val = tensor<int32, [4]>([0, 0, 0, 0])];
            tensor<int32, [2]> var_876_dilations_0 = const()[name = tensor<string, []>("op_876_dilations_0"), val = tensor<int32, [2]>([1, 1])];
            tensor<int32, []> var_876_groups_0 = const()[name = tensor<string, []>("op_876_groups_0"), val = tensor<int32, []>(1)];
            tensor<fp16, [64, 64, 1, 1]> model_model_23_cv2_0_2_weight_to_fp16 = const()[name = tensor<string, []>("model_model_23_cv2_0_2_weight_to_fp16"), val = tensor<fp16, [64, 64, 1, 1]>(BLOBFILE(path = tensor<string, []>("@model_path/weights/weight.bin"), offset = tensor<uint64, []>(4461952)))];
            tensor<fp16, [64]> model_model_23_cv2_0_2_bias_to_fp16 = const()[name = tensor<string, []>("model_model_23_cv2_0_2_bias_to_fp16"), val = tensor<fp16, [64]>(BLOBFILE(path = tensor<string, []>("@model_path/weights/weight.bin"), offset = tensor<uint64, []>(4470208)))];
            tensor<fp16, [1, 64, 80, 80]> var_876_cast_fp16 = conv(bias = model_model_23_cv2_0_2_bias_to_fp16, dilations = var_876_dilations_0, groups = var_876_groups_0, pad = var_876_pad_0, pad_type = var_876_pad_type_0, strides = var_876_strides_0, weight = model_model_23_cv2_0_2_weight_to_fp16, x = input_249_cast_fp16)[name = tensor<string, []>("op_876_cast_fp16")];
            tensor<int32, [3]> var_877 = const()[name = tensor<string, []>("op_877"), val = tensor<int32, [3]>([1, 64, -1])];
            tensor<fp16, [1, 64, 6400]> var_878_cast_fp16 = reshape(shape = var_877, x = var_876_cast_fp16)[name = tensor<string, []>("op_878_cast_fp16")];
            tensor<string, []> input_251_pad_type_0 = const()[name = tensor<string, []>("input_251_pad_type_0"), val = tensor<string, []>("custom")];
            tensor<int32, [4]> input_251_pad_0 = const()[name = tensor<string, []>("input_251_pad_0"), val = tensor<int32, [4]>([1, 1, 1, 1])];
            tensor<int32, [2]> input_251_strides_0 = const()[name = tensor<string, []>("input_251_strides_0"), val = tensor<int32, [2]>([1, 1])];
            tensor<int32, [2]> input_251_dilations_0 = const()[name = tensor<string, []>("input_251_dilations_0"), val = tensor<int32, [2]>([1, 1])];
            tensor<int32, []> input_251_groups_0 = const()[name = tensor<string, []>("input_251_groups_0"), val = tensor<int32, []>(1)];
            tensor<fp16, [64, 128, 3, 3]> model_model_23_cv2_1_0_conv_weight_to_fp16 = const()[name = tensor<string, []>("model_model_23_cv2_1_0_conv_weight_to_fp16"), val = tensor<fp16, [64, 128, 3, 3]>(BLOBFILE(path = tensor<string, []>("@model_path/weights/weight.bin"), offset = tensor<uint64, []>(4470400)))];
            tensor<fp16, [64]> model_model_23_cv2_1_0_conv_bias_to_fp16 = const()[name = tensor<string, []>("model_model_23_cv2_1_0_conv_bias_to_fp16"), val = tensor<fp16, [64]>(BLOBFILE(path = tensor<string, []>("@model_path/weights/weight.bin"), offset = tensor<uint64, []>(4617920)))];
            tensor<fp16, [1, 64, 40, 40]> input_251_cast_fp16 = conv(bias = model_model_23_cv2_1_0_conv_bias_to_fp16, dilations = input_251_dilations_0, groups = input_251_groups_0, pad = input_251_pad_0, pad_type = input_251_pad_type_0, strides = input_251_strides_0, weight = model_model_23_cv2_1_0_conv_weight_to_fp16, x = input_205_cast_fp16)[name = tensor<string, []>("input_251_cast_fp16")];
            tensor<fp16, [1, 64, 40, 40]> input_253_cast_fp16 = silu(x = input_251_cast_fp16)[name = tensor<string, []>("input_253_cast_fp16")];
            tensor<string, []> input_255_pad_type_0 = const()[name = tensor<string, []>("input_255_pad_type_0"), val = tensor<string, []>("custom")];
            tensor<int32, [4]> input_255_pad_0 = const()[name = tensor<string, []>("input_255_pad_0"), val = tensor<int32, [4]>([1, 1, 1, 1])];
            tensor<int32, [2]> input_255_strides_0 = const()[name = tensor<string, []>("input_255_strides_0"), val = tensor<int32, [2]>([1, 1])];
            tensor<int32, [2]> input_255_dilations_0 = const()[name = tensor<string, []>("input_255_dilations_0"), val = tensor<int32, [2]>([1, 1])];
            tensor<int32, []> input_255_groups_0 = const()[name = tensor<string, []>("input_255_groups_0"), val = tensor<int32, []>(1)];
            tensor<fp16, [64, 64, 3, 3]> model_model_23_cv2_1_1_conv_weight_to_fp16 = const()[name = tensor<string, []>("model_model_23_cv2_1_1_conv_weight_to_fp16"), val = tensor<fp16, [64, 64, 3, 3]>(BLOBFILE(path = tensor<string, []>("@model_path/weights/weight.bin"), offset = tensor<uint64, []>(4618112)))];
            tensor<fp16, [64]> model_model_23_cv2_1_1_conv_bias_to_fp16 = const()[name = tensor<string, []>("model_model_23_cv2_1_1_conv_bias_to_fp16"), val = tensor<fp16, [64]>(BLOBFILE(path = tensor<string, []>("@model_path/weights/weight.bin"), offset = tensor<uint64, []>(4691904)))];
            tensor<fp16, [1, 64, 40, 40]> input_255_cast_fp16 = conv(bias = model_model_23_cv2_1_1_conv_bias_to_fp16, dilations = input_255_dilations_0, groups = input_255_groups_0, pad = input_255_pad_0, pad_type = input_255_pad_type_0, strides = input_255_strides_0, weight = model_model_23_cv2_1_1_conv_weight_to_fp16, x = input_253_cast_fp16)[name = tensor<string, []>("input_255_cast_fp16")];
            tensor<fp16, [1, 64, 40, 40]> input_257_cast_fp16 = silu(x = input_255_cast_fp16)[name = tensor<string, []>("input_257_cast_fp16")];
            tensor<string, []> var_906_pad_type_0 = const()[name = tensor<string, []>("op_906_pad_type_0"), val = tensor<string, []>("valid")];
            tensor<int32, [2]> var_906_strides_0 = const()[name = tensor<string, []>("op_906_strides_0"), val = tensor<int32, [2]>([1, 1])];
            tensor<int32, [4]> var_906_pad_0 = const()[name = tensor<string, []>("op_906_pad_0"), val = tensor<int32, [4]>([0, 0, 0, 0])];
            tensor<int32, [2]> var_906_dilations_0 = const()[name = tensor<string, []>("op_906_dilations_0"), val = tensor<int32, [2]>([1, 1])];
            tensor<int32, []> var_906_groups_0 = const()[name = tensor<string, []>("op_906_groups_0"), val = tensor<int32, []>(1)];
            tensor<fp16, [64, 64, 1, 1]> model_model_23_cv2_1_2_weight_to_fp16 = const()[name = tensor<string, []>("model_model_23_cv2_1_2_weight_to_fp16"), val = tensor<fp16, [64, 64, 1, 1]>(BLOBFILE(path = tensor<string, []>("@model_path/weights/weight.bin"), offset = tensor<uint64, []>(4692096)))];
            tensor<fp16, [64]> model_model_23_cv2_1_2_bias_to_fp16 = const()[name = tensor<string, []>("model_model_23_cv2_1_2_bias_to_fp16"), val = tensor<fp16, [64]>(BLOBFILE(path = tensor<string, []>("@model_path/weights/weight.bin"), offset = tensor<uint64, []>(4700352)))];
            tensor<fp16, [1, 64, 40, 40]> var_906_cast_fp16 = conv(bias = model_model_23_cv2_1_2_bias_to_fp16, dilations = var_906_dilations_0, groups = var_906_groups_0, pad = var_906_pad_0, pad_type = var_906_pad_type_0, strides = var_906_strides_0, weight = model_model_23_cv2_1_2_weight_to_fp16, x = input_257_cast_fp16)[name = tensor<string, []>("op_906_cast_fp16")];
            tensor<int32, [3]> var_907 = const()[name = tensor<string, []>("op_907"), val = tensor<int32, [3]>([1, 64, -1])];
            tensor<fp16, [1, 64, 1600]> var_908_cast_fp16 = reshape(shape = var_907, x = var_906_cast_fp16)[name = tensor<string, []>("op_908_cast_fp16")];
            tensor<string, []> input_261_pad_type_0 = const()[name = tensor<string, []>("input_261_pad_type_0"), val = tensor<string, []>("custom")];
            tensor<int32, [4]> input_261_pad_0 = const()[name = tensor<string, []>("input_261_pad_0"), val = tensor<int32, [4]>([1, 1, 1, 1])];
            tensor<int32, [2]> input_261_strides_0 = const()[name = tensor<string, []>("input_261_strides_0"), val = tensor<int32, [2]>([1, 1])];
            tensor<int32, [2]> input_261_dilations_0 = const()[name = tensor<string, []>("input_261_dilations_0"), val = tensor<int32, [2]>([1, 1])];
            tensor<int32, []> input_261_groups_0 = const()[name = tensor<string, []>("input_261_groups_0"), val = tensor<int32, []>(1)];
            tensor<fp16, [64, 256, 3, 3]> model_model_23_cv2_2_0_conv_weight_to_fp16 = const()[name = tensor<string, []>("model_model_23_cv2_2_0_conv_weight_to_fp16"), val = tensor<fp16, [64, 256, 3, 3]>(BLOBFILE(path = tensor<string, []>("@model_path/weights/weight.bin"), offset = tensor<uint64, []>(4700544)))];
            tensor<fp16, [64]> model_model_23_cv2_2_0_conv_bias_to_fp16 = const()[name = tensor<string, []>("model_model_23_cv2_2_0_conv_bias_to_fp16"), val = tensor<fp16, [64]>(BLOBFILE(path = tensor<string, []>("@model_path/weights/weight.bin"), offset = tensor<uint64, []>(4995520)))];
            tensor<fp16, [1, 64, 20, 20]> input_261_cast_fp16 = conv(bias = model_model_23_cv2_2_0_conv_bias_to_fp16, dilations = input_261_dilations_0, groups = input_261_groups_0, pad = input_261_pad_0, pad_type = input_261_pad_type_0, strides = input_261_strides_0, weight = model_model_23_cv2_2_0_conv_weight_to_fp16, x = input_259_cast_fp16)[name = tensor<string, []>("input_261_cast_fp16")];
            tensor<fp16, [1, 64, 20, 20]> input_263_cast_fp16 = silu(x = input_261_cast_fp16)[name = tensor<string, []>("input_263_cast_fp16")];
            tensor<string, []> input_265_pad_type_0 = const()[name = tensor<string, []>("input_265_pad_type_0"), val = tensor<string, []>("custom")];
            tensor<int32, [4]> input_265_pad_0 = const()[name = tensor<string, []>("input_265_pad_0"), val = tensor<int32, [4]>([1, 1, 1, 1])];
            tensor<int32, [2]> input_265_strides_0 = const()[name = tensor<string, []>("input_265_strides_0"), val = tensor<int32, [2]>([1, 1])];
            tensor<int32, [2]> input_265_dilations_0 = const()[name = tensor<string, []>("input_265_dilations_0"), val = tensor<int32, [2]>([1, 1])];
            tensor<int32, []> input_265_groups_0 = const()[name = tensor<string, []>("input_265_groups_0"), val = tensor<int32, []>(1)];
            tensor<fp16, [64, 64, 3, 3]> model_model_23_cv2_2_1_conv_weight_to_fp16 = const()[name = tensor<string, []>("model_model_23_cv2_2_1_conv_weight_to_fp16"), val = tensor<fp16, [64, 64, 3, 3]>(BLOBFILE(path = tensor<string, []>("@model_path/weights/weight.bin"), offset = tensor<uint64, []>(4995712)))];
            tensor<fp16, [64]> model_model_23_cv2_2_1_conv_bias_to_fp16 = const()[name = tensor<string, []>("model_model_23_cv2_2_1_conv_bias_to_fp16"), val = tensor<fp16, [64]>(BLOBFILE(path = tensor<string, []>("@model_path/weights/weight.bin"), offset = tensor<uint64, []>(5069504)))];
            tensor<fp16, [1, 64, 20, 20]> input_265_cast_fp16 = conv(bias = model_model_23_cv2_2_1_conv_bias_to_fp16, dilations = input_265_dilations_0, groups = input_265_groups_0, pad = input_265_pad_0, pad_type = input_265_pad_type_0, strides = input_265_strides_0, weight = model_model_23_cv2_2_1_conv_weight_to_fp16, x = input_263_cast_fp16)[name = tensor<string, []>("input_265_cast_fp16")];
            tensor<fp16, [1, 64, 20, 20]> input_267_cast_fp16 = silu(x = input_265_cast_fp16)[name = tensor<string, []>("input_267_cast_fp16")];
            tensor<string, []> var_936_pad_type_0 = const()[name = tensor<string, []>("op_936_pad_type_0"), val = tensor<string, []>("valid")];
            tensor<int32, [2]> var_936_strides_0 = const()[name = tensor<string, []>("op_936_strides_0"), val = tensor<int32, [2]>([1, 1])];
            tensor<int32, [4]> var_936_pad_0 = const()[name = tensor<string, []>("op_936_pad_0"), val = tensor<int32, [4]>([0, 0, 0, 0])];
            tensor<int32, [2]> var_936_dilations_0 = const()[name = tensor<string, []>("op_936_dilations_0"), val = tensor<int32, [2]>([1, 1])];
            tensor<int32, []> var_936_groups_0 = const()[name = tensor<string, []>("op_936_groups_0"), val = tensor<int32, []>(1)];
            tensor<fp16, [64, 64, 1, 1]> model_model_23_cv2_2_2_weight_to_fp16 = const()[name = tensor<string, []>("model_model_23_cv2_2_2_weight_to_fp16"), val = tensor<fp16, [64, 64, 1, 1]>(BLOBFILE(path = tensor<string, []>("@model_path/weights/weight.bin"), offset = tensor<uint64, []>(5069696)))];
            tensor<fp16, [64]> model_model_23_cv2_2_2_bias_to_fp16 = const()[name = tensor<string, []>("model_model_23_cv2_2_2_bias_to_fp16"), val = tensor<fp16, [64]>(BLOBFILE(path = tensor<string, []>("@model_path/weights/weight.bin"), offset = tensor<uint64, []>(5077952)))];
            tensor<fp16, [1, 64, 20, 20]> var_936_cast_fp16 = conv(bias = model_model_23_cv2_2_2_bias_to_fp16, dilations = var_936_dilations_0, groups = var_936_groups_0, pad = var_936_pad_0, pad_type = var_936_pad_type_0, strides = var_936_strides_0, weight = model_model_23_cv2_2_2_weight_to_fp16, x = input_267_cast_fp16)[name = tensor<string, []>("op_936_cast_fp16")];
            tensor<int32, [3]> var_937 = const()[name = tensor<string, []>("op_937"), val = tensor<int32, [3]>([1, 64, -1])];
            tensor<fp16, [1, 64, 400]> var_938_cast_fp16 = reshape(shape = var_937, x = var_936_cast_fp16)[name = tensor<string, []>("op_938_cast_fp16")];
            tensor<bool, []> x_interleave_0 = const()[name = tensor<string, []>("x_interleave_0"), val = tensor<bool, []>(false)];
            tensor<fp16, [1, 64, 8400]> x_cast_fp16 = concat(axis = var_9, interleave = x_interleave_0, values = (var_878_cast_fp16, var_908_cast_fp16, var_938_cast_fp16))[name = tensor<string, []>("x_cast_fp16")];
            tensor<string, []> input_269_pad_type_0 = const()[name = tensor<string, []>("input_269_pad_type_0"), val = tensor<string, []>("custom")];
            tensor<int32, [4]> input_269_pad_0 = const()[name = tensor<string, []>("input_269_pad_0"), val = tensor<int32, [4]>([1, 1, 1, 1])];
            tensor<int32, []> input_269_groups_0 = const()[name = tensor<string, []>("input_269_groups_0"), val = tensor<int32, []>(64)];
            tensor<int32, [2]> input_269_strides_0 = const()[name = tensor<string, []>("input_269_strides_0"), val = tensor<int32, [2]>([1, 1])];
            tensor<int32, [2]> input_269_dilations_0 = const()[name = tensor<string, []>("input_269_dilations_0"), val = tensor<int32, [2]>([1, 1])];
            tensor<fp16, [64, 1, 3, 3]> model_model_23_cv3_0_0_0_conv_weight_to_fp16 = const()[name = tensor<string, []>("model_model_23_cv3_0_0_0_conv_weight_to_fp16"), val = tensor<fp16, [64, 1, 3, 3]>(BLOBFILE(path = tensor<string, []>("@model_path/weights/weight.bin"), offset = tensor<uint64, []>(5078144)))];
            tensor<fp16, [64]> model_model_23_cv3_0_0_0_conv_bias_to_fp16 = const()[name = tensor<string, []>("model_model_23_cv3_0_0_0_conv_bias_to_fp16"), val = tensor<fp16, [64]>(BLOBFILE(path = tensor<string, []>("@model_path/weights/weight.bin"), offset = tensor<uint64, []>(5079360)))];
            tensor<fp16, [1, 64, 80, 80]> input_269_cast_fp16 = conv(bias = model_model_23_cv3_0_0_0_conv_bias_to_fp16, dilations = input_269_dilations_0, groups = input_269_groups_0, pad = input_269_pad_0, pad_type = input_269_pad_type_0, strides = input_269_strides_0, weight = model_model_23_cv3_0_0_0_conv_weight_to_fp16, x = input_185_cast_fp16)[name = tensor<string, []>("input_269_cast_fp16")];
            tensor<fp16, [1, 64, 80, 80]> input_271_cast_fp16 = silu(x = input_269_cast_fp16)[name = tensor<string, []>("input_271_cast_fp16")];
            tensor<string, []> input_273_pad_type_0 = const()[name = tensor<string, []>("input_273_pad_type_0"), val = tensor<string, []>("valid")];
            tensor<int32, [2]> input_273_strides_0 = const()[name = tensor<string, []>("input_273_strides_0"), val = tensor<int32, [2]>([1, 1])];
            tensor<int32, [4]> input_273_pad_0 = const()[name = tensor<string, []>("input_273_pad_0"), val = tensor<int32, [4]>([0, 0, 0, 0])];
            tensor<int32, [2]> input_273_dilations_0 = const()[name = tensor<string, []>("input_273_dilations_0"), val = tensor<int32, [2]>([1, 1])];
            tensor<int32, []> input_273_groups_0 = const()[name = tensor<string, []>("input_273_groups_0"), val = tensor<int32, []>(1)];
            tensor<fp16, [64, 64, 1, 1]> model_model_23_cv3_0_0_1_conv_weight_to_fp16 = const()[name = tensor<string, []>("model_model_23_cv3_0_0_1_conv_weight_to_fp16"), val = tensor<fp16, [64, 64, 1, 1]>(BLOBFILE(path = tensor<string, []>("@model_path/weights/weight.bin"), offset = tensor<uint64, []>(5079552)))];
            tensor<fp16, [64]> model_model_23_cv3_0_0_1_conv_bias_to_fp16 = const()[name = tensor<string, []>("model_model_23_cv3_0_0_1_conv_bias_to_fp16"), val = tensor<fp16, [64]>(BLOBFILE(path = tensor<string, []>("@model_path/weights/weight.bin"), offset = tensor<uint64, []>(5087808)))];
            tensor<fp16, [1, 64, 80, 80]> input_273_cast_fp16 = conv(bias = model_model_23_cv3_0_0_1_conv_bias_to_fp16, dilations = input_273_dilations_0, groups = input_273_groups_0, pad = input_273_pad_0, pad_type = input_273_pad_type_0, strides = input_273_strides_0, weight = model_model_23_cv3_0_0_1_conv_weight_to_fp16, x = input_271_cast_fp16)[name = tensor<string, []>("input_273_cast_fp16")];
            tensor<fp16, [1, 64, 80, 80]> input_275_cast_fp16 = silu(x = input_273_cast_fp16)[name = tensor<string, []>("input_275_cast_fp16")];
            tensor<string, []> input_277_pad_type_0 = const()[name = tensor<string, []>("input_277_pad_type_0"), val = tensor<string, []>("custom")];
            tensor<int32, [4]> input_277_pad_0 = const()[name = tensor<string, []>("input_277_pad_0"), val = tensor<int32, [4]>([1, 1, 1, 1])];
            tensor<int32, []> input_277_groups_0 = const()[name = tensor<string, []>("input_277_groups_0"), val = tensor<int32, []>(64)];
            tensor<int32, [2]> input_277_strides_0 = const()[name = tensor<string, []>("input_277_strides_0"), val = tensor<int32, [2]>([1, 1])];
            tensor<int32, [2]> input_277_dilations_0 = const()[name = tensor<string, []>("input_277_dilations_0"), val = tensor<int32, [2]>([1, 1])];
            tensor<fp16, [64, 1, 3, 3]> model_model_23_cv3_0_1_0_conv_weight_to_fp16 = const()[name = tensor<string, []>("model_model_23_cv3_0_1_0_conv_weight_to_fp16"), val = tensor<fp16, [64, 1, 3, 3]>(BLOBFILE(path = tensor<string, []>("@model_path/weights/weight.bin"), offset = tensor<uint64, []>(5088000)))];
            tensor<fp16, [64]> model_model_23_cv3_0_1_0_conv_bias_to_fp16 = const()[name = tensor<string, []>("model_model_23_cv3_0_1_0_conv_bias_to_fp16"), val = tensor<fp16, [64]>(BLOBFILE(path = tensor<string, []>("@model_path/weights/weight.bin"), offset = tensor<uint64, []>(5089216)))];
            tensor<fp16, [1, 64, 80, 80]> input_277_cast_fp16 = conv(bias = model_model_23_cv3_0_1_0_conv_bias_to_fp16, dilations = input_277_dilations_0, groups = input_277_groups_0, pad = input_277_pad_0, pad_type = input_277_pad_type_0, strides = input_277_strides_0, weight = model_model_23_cv3_0_1_0_conv_weight_to_fp16, x = input_275_cast_fp16)[name = tensor<string, []>("input_277_cast_fp16")];
            tensor<fp16, [1, 64, 80, 80]> input_279_cast_fp16 = silu(x = input_277_cast_fp16)[name = tensor<string, []>("input_279_cast_fp16")];
            tensor<string, []> input_281_pad_type_0 = const()[name = tensor<string, []>("input_281_pad_type_0"), val = tensor<string, []>("valid")];
            tensor<int32, [2]> input_281_strides_0 = const()[name = tensor<string, []>("input_281_strides_0"), val = tensor<int32, [2]>([1, 1])];
            tensor<int32, [4]> input_281_pad_0 = const()[name = tensor<string, []>("input_281_pad_0"), val = tensor<int32, [4]>([0, 0, 0, 0])];
            tensor<int32, [2]> input_281_dilations_0 = const()[name = tensor<string, []>("input_281_dilations_0"), val = tensor<int32, [2]>([1, 1])];
            tensor<int32, []> input_281_groups_0 = const()[name = tensor<string, []>("input_281_groups_0"), val = tensor<int32, []>(1)];
            tensor<fp16, [64, 64, 1, 1]> model_model_23_cv3_0_1_1_conv_weight_to_fp16 = const()[name = tensor<string, []>("model_model_23_cv3_0_1_1_conv_weight_to_fp16"), val = tensor<fp16, [64, 64, 1, 1]>(BLOBFILE(path = tensor<string, []>("@model_path/weights/weight.bin"), offset = tensor<uint64, []>(5089408)))];
            tensor<fp16, [64]> model_model_23_cv3_0_1_1_conv_bias_to_fp16 = const()[name = tensor<string, []>("model_model_23_cv3_0_1_1_conv_bias_to_fp16"), val = tensor<fp16, [64]>(BLOBFILE(path = tensor<string, []>("@model_path/weights/weight.bin"), offset = tensor<uint64, []>(5097664)))];
            tensor<fp16, [1, 64, 80, 80]> input_281_cast_fp16 = conv(bias = model_model_23_cv3_0_1_1_conv_bias_to_fp16, dilations = input_281_dilations_0, groups = input_281_groups_0, pad = input_281_pad_0, pad_type = input_281_pad_type_0, strides = input_281_strides_0, weight = model_model_23_cv3_0_1_1_conv_weight_to_fp16, x = input_279_cast_fp16)[name = tensor<string, []>("input_281_cast_fp16")];
            tensor<fp16, [1, 64, 80, 80]> input_283_cast_fp16 = silu(x = input_281_cast_fp16)[name = tensor<string, []>("input_283_cast_fp16")];
            tensor<string, []> var_990_pad_type_0 = const()[name = tensor<string, []>("op_990_pad_type_0"), val = tensor<string, []>("valid")];
            tensor<int32, [2]> var_990_strides_0 = const()[name = tensor<string, []>("op_990_strides_0"), val = tensor<int32, [2]>([1, 1])];
            tensor<int32, [4]> var_990_pad_0 = const()[name = tensor<string, []>("op_990_pad_0"), val = tensor<int32, [4]>([0, 0, 0, 0])];
            tensor<int32, [2]> var_990_dilations_0 = const()[name = tensor<string, []>("op_990_dilations_0"), val = tensor<int32, [2]>([1, 1])];
            tensor<int32, []> var_990_groups_0 = const()[name = tensor<string, []>("op_990_groups_0"), val = tensor<int32, []>(1)];
            tensor<fp16, [12, 64, 1, 1]> model_model_23_cv3_0_2_weight_to_fp16 = const()[name = tensor<string, []>("model_model_23_cv3_0_2_weight_to_fp16"), val = tensor<fp16, [12, 64, 1, 1]>(BLOBFILE(path = tensor<string, []>("@model_path/weights/weight.bin"), offset = tensor<uint64, []>(5097856)))];
            tensor<fp16, [12]> model_model_23_cv3_0_2_bias_to_fp16 = const()[name = tensor<string, []>("model_model_23_cv3_0_2_bias_to_fp16"), val = tensor<fp16, [12]>(BLOBFILE(path = tensor<string, []>("@model_path/weights/weight.bin"), offset = tensor<uint64, []>(5099456)))];
            tensor<fp16, [1, 12, 80, 80]> var_990_cast_fp16 = conv(bias = model_model_23_cv3_0_2_bias_to_fp16, dilations = var_990_dilations_0, groups = var_990_groups_0, pad = var_990_pad_0, pad_type = var_990_pad_type_0, strides = var_990_strides_0, weight = model_model_23_cv3_0_2_weight_to_fp16, x = input_283_cast_fp16)[name = tensor<string, []>("op_990_cast_fp16")];
            tensor<int32, [3]> var_991 = const()[name = tensor<string, []>("op_991"), val = tensor<int32, [3]>([1, 12, -1])];
            tensor<fp16, [1, 12, 6400]> var_992_cast_fp16 = reshape(shape = var_991, x = var_990_cast_fp16)[name = tensor<string, []>("op_992_cast_fp16")];
            tensor<string, []> input_285_pad_type_0 = const()[name = tensor<string, []>("input_285_pad_type_0"), val = tensor<string, []>("custom")];
            tensor<int32, [4]> input_285_pad_0 = const()[name = tensor<string, []>("input_285_pad_0"), val = tensor<int32, [4]>([1, 1, 1, 1])];
            tensor<int32, []> input_285_groups_0 = const()[name = tensor<string, []>("input_285_groups_0"), val = tensor<int32, []>(128)];
            tensor<int32, [2]> input_285_strides_0 = const()[name = tensor<string, []>("input_285_strides_0"), val = tensor<int32, [2]>([1, 1])];
            tensor<int32, [2]> input_285_dilations_0 = const()[name = tensor<string, []>("input_285_dilations_0"), val = tensor<int32, [2]>([1, 1])];
            tensor<fp16, [128, 1, 3, 3]> model_model_23_cv3_1_0_0_conv_weight_to_fp16 = const()[name = tensor<string, []>("model_model_23_cv3_1_0_0_conv_weight_to_fp16"), val = tensor<fp16, [128, 1, 3, 3]>(BLOBFILE(path = tensor<string, []>("@model_path/weights/weight.bin"), offset = tensor<uint64, []>(5099584)))];
            tensor<fp16, [128]> model_model_23_cv3_1_0_0_conv_bias_to_fp16 = const()[name = tensor<string, []>("model_model_23_cv3_1_0_0_conv_bias_to_fp16"), val = tensor<fp16, [128]>(BLOBFILE(path = tensor<string, []>("@model_path/weights/weight.bin"), offset = tensor<uint64, []>(5101952)))];
            tensor<fp16, [1, 128, 40, 40]> input_285_cast_fp16 = conv(bias = model_model_23_cv3_1_0_0_conv_bias_to_fp16, dilations = input_285_dilations_0, groups = input_285_groups_0, pad = input_285_pad_0, pad_type = input_285_pad_type_0, strides = input_285_strides_0, weight = model_model_23_cv3_1_0_0_conv_weight_to_fp16, x = input_205_cast_fp16)[name = tensor<string, []>("input_285_cast_fp16")];
            tensor<fp16, [1, 128, 40, 40]> input_287_cast_fp16 = silu(x = input_285_cast_fp16)[name = tensor<string, []>("input_287_cast_fp16")];
            tensor<string, []> input_289_pad_type_0 = const()[name = tensor<string, []>("input_289_pad_type_0"), val = tensor<string, []>("valid")];
            tensor<int32, [2]> input_289_strides_0 = const()[name = tensor<string, []>("input_289_strides_0"), val = tensor<int32, [2]>([1, 1])];
            tensor<int32, [4]> input_289_pad_0 = const()[name = tensor<string, []>("input_289_pad_0"), val = tensor<int32, [4]>([0, 0, 0, 0])];
            tensor<int32, [2]> input_289_dilations_0 = const()[name = tensor<string, []>("input_289_dilations_0"), val = tensor<int32, [2]>([1, 1])];
            tensor<int32, []> input_289_groups_0 = const()[name = tensor<string, []>("input_289_groups_0"), val = tensor<int32, []>(1)];
            tensor<fp16, [64, 128, 1, 1]> model_model_23_cv3_1_0_1_conv_weight_to_fp16 = const()[name = tensor<string, []>("model_model_23_cv3_1_0_1_conv_weight_to_fp16"), val = tensor<fp16, [64, 128, 1, 1]>(BLOBFILE(path = tensor<string, []>("@model_path/weights/weight.bin"), offset = tensor<uint64, []>(5102272)))];
            tensor<fp16, [64]> model_model_23_cv3_1_0_1_conv_bias_to_fp16 = const()[name = tensor<string, []>("model_model_23_cv3_1_0_1_conv_bias_to_fp16"), val = tensor<fp16, [64]>(BLOBFILE(path = tensor<string, []>("@model_path/weights/weight.bin"), offset = tensor<uint64, []>(5118720)))];
            tensor<fp16, [1, 64, 40, 40]> input_289_cast_fp16 = conv(bias = model_model_23_cv3_1_0_1_conv_bias_to_fp16, dilations = input_289_dilations_0, groups = input_289_groups_0, pad = input_289_pad_0, pad_type = input_289_pad_type_0, strides = input_289_strides_0, weight = model_model_23_cv3_1_0_1_conv_weight_to_fp16, x = input_287_cast_fp16)[name = tensor<string, []>("input_289_cast_fp16")];
            tensor<fp16, [1, 64, 40, 40]> input_291_cast_fp16 = silu(x = input_289_cast_fp16)[name = tensor<string, []>("input_291_cast_fp16")];
            tensor<string, []> input_293_pad_type_0 = const()[name = tensor<string, []>("input_293_pad_type_0"), val = tensor<string, []>("custom")];
            tensor<int32, [4]> input_293_pad_0 = const()[name = tensor<string, []>("input_293_pad_0"), val = tensor<int32, [4]>([1, 1, 1, 1])];
            tensor<int32, []> input_293_groups_0 = const()[name = tensor<string, []>("input_293_groups_0"), val = tensor<int32, []>(64)];
            tensor<int32, [2]> input_293_strides_0 = const()[name = tensor<string, []>("input_293_strides_0"), val = tensor<int32, [2]>([1, 1])];
            tensor<int32, [2]> input_293_dilations_0 = const()[name = tensor<string, []>("input_293_dilations_0"), val = tensor<int32, [2]>([1, 1])];
            tensor<fp16, [64, 1, 3, 3]> model_model_23_cv3_1_1_0_conv_weight_to_fp16 = const()[name = tensor<string, []>("model_model_23_cv3_1_1_0_conv_weight_to_fp16"), val = tensor<fp16, [64, 1, 3, 3]>(BLOBFILE(path = tensor<string, []>("@model_path/weights/weight.bin"), offset = tensor<uint64, []>(5118912)))];
            tensor<fp16, [64]> model_model_23_cv3_1_1_0_conv_bias_to_fp16 = const()[name = tensor<string, []>("model_model_23_cv3_1_1_0_conv_bias_to_fp16"), val = tensor<fp16, [64]>(BLOBFILE(path = tensor<string, []>("@model_path/weights/weight.bin"), offset = tensor<uint64, []>(5120128)))];
            tensor<fp16, [1, 64, 40, 40]> input_293_cast_fp16 = conv(bias = model_model_23_cv3_1_1_0_conv_bias_to_fp16, dilations = input_293_dilations_0, groups = input_293_groups_0, pad = input_293_pad_0, pad_type = input_293_pad_type_0, strides = input_293_strides_0, weight = model_model_23_cv3_1_1_0_conv_weight_to_fp16, x = input_291_cast_fp16)[name = tensor<string, []>("input_293_cast_fp16")];
            tensor<fp16, [1, 64, 40, 40]> input_295_cast_fp16 = silu(x = input_293_cast_fp16)[name = tensor<string, []>("input_295_cast_fp16")];
            tensor<string, []> input_297_pad_type_0 = const()[name = tensor<string, []>("input_297_pad_type_0"), val = tensor<string, []>("valid")];
            tensor<int32, [2]> input_297_strides_0 = const()[name = tensor<string, []>("input_297_strides_0"), val = tensor<int32, [2]>([1, 1])];
            tensor<int32, [4]> input_297_pad_0 = const()[name = tensor<string, []>("input_297_pad_0"), val = tensor<int32, [4]>([0, 0, 0, 0])];
            tensor<int32, [2]> input_297_dilations_0 = const()[name = tensor<string, []>("input_297_dilations_0"), val = tensor<int32, [2]>([1, 1])];
            tensor<int32, []> input_297_groups_0 = const()[name = tensor<string, []>("input_297_groups_0"), val = tensor<int32, []>(1)];
            tensor<fp16, [64, 64, 1, 1]> model_model_23_cv3_1_1_1_conv_weight_to_fp16 = const()[name = tensor<string, []>("model_model_23_cv3_1_1_1_conv_weight_to_fp16"), val = tensor<fp16, [64, 64, 1, 1]>(BLOBFILE(path = tensor<string, []>("@model_path/weights/weight.bin"), offset = tensor<uint64, []>(5120320)))];
            tensor<fp16, [64]> model_model_23_cv3_1_1_1_conv_bias_to_fp16 = const()[name = tensor<string, []>("model_model_23_cv3_1_1_1_conv_bias_to_fp16"), val = tensor<fp16, [64]>(BLOBFILE(path = tensor<string, []>("@model_path/weights/weight.bin"), offset = tensor<uint64, []>(5128576)))];
            tensor<fp16, [1, 64, 40, 40]> input_297_cast_fp16 = conv(bias = model_model_23_cv3_1_1_1_conv_bias_to_fp16, dilations = input_297_dilations_0, groups = input_297_groups_0, pad = input_297_pad_0, pad_type = input_297_pad_type_0, strides = input_297_strides_0, weight = model_model_23_cv3_1_1_1_conv_weight_to_fp16, x = input_295_cast_fp16)[name = tensor<string, []>("input_297_cast_fp16")];
            tensor<fp16, [1, 64, 40, 40]> input_299_cast_fp16 = silu(x = input_297_cast_fp16)[name = tensor<string, []>("input_299_cast_fp16")];
            tensor<string, []> var_1042_pad_type_0 = const()[name = tensor<string, []>("op_1042_pad_type_0"), val = tensor<string, []>("valid")];
            tensor<int32, [2]> var_1042_strides_0 = const()[name = tensor<string, []>("op_1042_strides_0"), val = tensor<int32, [2]>([1, 1])];
            tensor<int32, [4]> var_1042_pad_0 = const()[name = tensor<string, []>("op_1042_pad_0"), val = tensor<int32, [4]>([0, 0, 0, 0])];
            tensor<int32, [2]> var_1042_dilations_0 = const()[name = tensor<string, []>("op_1042_dilations_0"), val = tensor<int32, [2]>([1, 1])];
            tensor<int32, []> var_1042_groups_0 = const()[name = tensor<string, []>("op_1042_groups_0"), val = tensor<int32, []>(1)];
            tensor<fp16, [12, 64, 1, 1]> model_model_23_cv3_1_2_weight_to_fp16 = const()[name = tensor<string, []>("model_model_23_cv3_1_2_weight_to_fp16"), val = tensor<fp16, [12, 64, 1, 1]>(BLOBFILE(path = tensor<string, []>("@model_path/weights/weight.bin"), offset = tensor<uint64, []>(5128768)))];
            tensor<fp16, [12]> model_model_23_cv3_1_2_bias_to_fp16 = const()[name = tensor<string, []>("model_model_23_cv3_1_2_bias_to_fp16"), val = tensor<fp16, [12]>(BLOBFILE(path = tensor<string, []>("@model_path/weights/weight.bin"), offset = tensor<uint64, []>(5130368)))];
            tensor<fp16, [1, 12, 40, 40]> var_1042_cast_fp16 = conv(bias = model_model_23_cv3_1_2_bias_to_fp16, dilations = var_1042_dilations_0, groups = var_1042_groups_0, pad = var_1042_pad_0, pad_type = var_1042_pad_type_0, strides = var_1042_strides_0, weight = model_model_23_cv3_1_2_weight_to_fp16, x = input_299_cast_fp16)[name = tensor<string, []>("op_1042_cast_fp16")];
            tensor<int32, [3]> var_1043 = const()[name = tensor<string, []>("op_1043"), val = tensor<int32, [3]>([1, 12, -1])];
            tensor<fp16, [1, 12, 1600]> var_1044_cast_fp16 = reshape(shape = var_1043, x = var_1042_cast_fp16)[name = tensor<string, []>("op_1044_cast_fp16")];
            tensor<string, []> input_301_pad_type_0 = const()[name = tensor<string, []>("input_301_pad_type_0"), val = tensor<string, []>("custom")];
            tensor<int32, [4]> input_301_pad_0 = const()[name = tensor<string, []>("input_301_pad_0"), val = tensor<int32, [4]>([1, 1, 1, 1])];
            tensor<int32, []> input_301_groups_0 = const()[name = tensor<string, []>("input_301_groups_0"), val = tensor<int32, []>(256)];
            tensor<int32, [2]> input_301_strides_0 = const()[name = tensor<string, []>("input_301_strides_0"), val = tensor<int32, [2]>([1, 1])];
            tensor<int32, [2]> input_301_dilations_0 = const()[name = tensor<string, []>("input_301_dilations_0"), val = tensor<int32, [2]>([1, 1])];
            tensor<fp16, [256, 1, 3, 3]> model_model_23_cv3_2_0_0_conv_weight_to_fp16 = const()[name = tensor<string, []>("model_model_23_cv3_2_0_0_conv_weight_to_fp16"), val = tensor<fp16, [256, 1, 3, 3]>(BLOBFILE(path = tensor<string, []>("@model_path/weights/weight.bin"), offset = tensor<uint64, []>(5130496)))];
            tensor<fp16, [256]> model_model_23_cv3_2_0_0_conv_bias_to_fp16 = const()[name = tensor<string, []>("model_model_23_cv3_2_0_0_conv_bias_to_fp16"), val = tensor<fp16, [256]>(BLOBFILE(path = tensor<string, []>("@model_path/weights/weight.bin"), offset = tensor<uint64, []>(5135168)))];
            tensor<fp16, [1, 256, 20, 20]> input_301_cast_fp16 = conv(bias = model_model_23_cv3_2_0_0_conv_bias_to_fp16, dilations = input_301_dilations_0, groups = input_301_groups_0, pad = input_301_pad_0, pad_type = input_301_pad_type_0, strides = input_301_strides_0, weight = model_model_23_cv3_2_0_0_conv_weight_to_fp16, x = input_259_cast_fp16)[name = tensor<string, []>("input_301_cast_fp16")];
            tensor<fp16, [1, 256, 20, 20]> input_303_cast_fp16 = silu(x = input_301_cast_fp16)[name = tensor<string, []>("input_303_cast_fp16")];
            tensor<string, []> input_305_pad_type_0 = const()[name = tensor<string, []>("input_305_pad_type_0"), val = tensor<string, []>("valid")];
            tensor<int32, [2]> input_305_strides_0 = const()[name = tensor<string, []>("input_305_strides_0"), val = tensor<int32, [2]>([1, 1])];
            tensor<int32, [4]> input_305_pad_0 = const()[name = tensor<string, []>("input_305_pad_0"), val = tensor<int32, [4]>([0, 0, 0, 0])];
            tensor<int32, [2]> input_305_dilations_0 = const()[name = tensor<string, []>("input_305_dilations_0"), val = tensor<int32, [2]>([1, 1])];
            tensor<int32, []> input_305_groups_0 = const()[name = tensor<string, []>("input_305_groups_0"), val = tensor<int32, []>(1)];
            tensor<fp16, [64, 256, 1, 1]> model_model_23_cv3_2_0_1_conv_weight_to_fp16 = const()[name = tensor<string, []>("model_model_23_cv3_2_0_1_conv_weight_to_fp16"), val = tensor<fp16, [64, 256, 1, 1]>(BLOBFILE(path = tensor<string, []>("@model_path/weights/weight.bin"), offset = tensor<uint64, []>(5135744)))];
            tensor<fp16, [64]> model_model_23_cv3_2_0_1_conv_bias_to_fp16 = const()[name = tensor<string, []>("model_model_23_cv3_2_0_1_conv_bias_to_fp16"), val = tensor<fp16, [64]>(BLOBFILE(path = tensor<string, []>("@model_path/weights/weight.bin"), offset = tensor<uint64, []>(5168576)))];
            tensor<fp16, [1, 64, 20, 20]> input_305_cast_fp16 = conv(bias = model_model_23_cv3_2_0_1_conv_bias_to_fp16, dilations = input_305_dilations_0, groups = input_305_groups_0, pad = input_305_pad_0, pad_type = input_305_pad_type_0, strides = input_305_strides_0, weight = model_model_23_cv3_2_0_1_conv_weight_to_fp16, x = input_303_cast_fp16)[name = tensor<string, []>("input_305_cast_fp16")];
            tensor<fp16, [1, 64, 20, 20]> input_307_cast_fp16 = silu(x = input_305_cast_fp16)[name = tensor<string, []>("input_307_cast_fp16")];
            tensor<string, []> input_309_pad_type_0 = const()[name = tensor<string, []>("input_309_pad_type_0"), val = tensor<string, []>("custom")];
            tensor<int32, [4]> input_309_pad_0 = const()[name = tensor<string, []>("input_309_pad_0"), val = tensor<int32, [4]>([1, 1, 1, 1])];
            tensor<int32, []> input_309_groups_0 = const()[name = tensor<string, []>("input_309_groups_0"), val = tensor<int32, []>(64)];
            tensor<int32, [2]> input_309_strides_0 = const()[name = tensor<string, []>("input_309_strides_0"), val = tensor<int32, [2]>([1, 1])];
            tensor<int32, [2]> input_309_dilations_0 = const()[name = tensor<string, []>("input_309_dilations_0"), val = tensor<int32, [2]>([1, 1])];
            tensor<fp16, [64, 1, 3, 3]> model_model_23_cv3_2_1_0_conv_weight_to_fp16 = const()[name = tensor<string, []>("model_model_23_cv3_2_1_0_conv_weight_to_fp16"), val = tensor<fp16, [64, 1, 3, 3]>(BLOBFILE(path = tensor<string, []>("@model_path/weights/weight.bin"), offset = tensor<uint64, []>(5168768)))];
            tensor<fp16, [64]> model_model_23_cv3_2_1_0_conv_bias_to_fp16 = const()[name = tensor<string, []>("model_model_23_cv3_2_1_0_conv_bias_to_fp16"), val = tensor<fp16, [64]>(BLOBFILE(path = tensor<string, []>("@model_path/weights/weight.bin"), offset = tensor<uint64, []>(5169984)))];
            tensor<fp16, [1, 64, 20, 20]> input_309_cast_fp16 = conv(bias = model_model_23_cv3_2_1_0_conv_bias_to_fp16, dilations = input_309_dilations_0, groups = input_309_groups_0, pad = input_309_pad_0, pad_type = input_309_pad_type_0, strides = input_309_strides_0, weight = model_model_23_cv3_2_1_0_conv_weight_to_fp16, x = input_307_cast_fp16)[name = tensor<string, []>("input_309_cast_fp16")];
            tensor<fp16, [1, 64, 20, 20]> input_311_cast_fp16 = silu(x = input_309_cast_fp16)[name = tensor<string, []>("input_311_cast_fp16")];
            tensor<string, []> input_313_pad_type_0 = const()[name = tensor<string, []>("input_313_pad_type_0"), val = tensor<string, []>("valid")];
            tensor<int32, [2]> input_313_strides_0 = const()[name = tensor<string, []>("input_313_strides_0"), val = tensor<int32, [2]>([1, 1])];
            tensor<int32, [4]> input_313_pad_0 = const()[name = tensor<string, []>("input_313_pad_0"), val = tensor<int32, [4]>([0, 0, 0, 0])];
            tensor<int32, [2]> input_313_dilations_0 = const()[name = tensor<string, []>("input_313_dilations_0"), val = tensor<int32, [2]>([1, 1])];
            tensor<int32, []> input_313_groups_0 = const()[name = tensor<string, []>("input_313_groups_0"), val = tensor<int32, []>(1)];
            tensor<fp16, [64, 64, 1, 1]> model_model_23_cv3_2_1_1_conv_weight_to_fp16 = const()[name = tensor<string, []>("model_model_23_cv3_2_1_1_conv_weight_to_fp16"), val = tensor<fp16, [64, 64, 1, 1]>(BLOBFILE(path = tensor<string, []>("@model_path/weights/weight.bin"), offset = tensor<uint64, []>(5170176)))];
            tensor<fp16, [64]> model_model_23_cv3_2_1_1_conv_bias_to_fp16 = const()[name = tensor<string, []>("model_model_23_cv3_2_1_1_conv_bias_to_fp16"), val = tensor<fp16, [64]>(BLOBFILE(path = tensor<string, []>("@model_path/weights/weight.bin"), offset = tensor<uint64, []>(5178432)))];
            tensor<fp16, [1, 64, 20, 20]> input_313_cast_fp16 = conv(bias = model_model_23_cv3_2_1_1_conv_bias_to_fp16, dilations = input_313_dilations_0, groups = input_313_groups_0, pad = input_313_pad_0, pad_type = input_313_pad_type_0, strides = input_313_strides_0, weight = model_model_23_cv3_2_1_1_conv_weight_to_fp16, x = input_311_cast_fp16)[name = tensor<string, []>("input_313_cast_fp16")];
            tensor<fp16, [1, 64, 20, 20]> input_315_cast_fp16 = silu(x = input_313_cast_fp16)[name = tensor<string, []>("input_315_cast_fp16")];
            tensor<string, []> var_1094_pad_type_0 = const()[name = tensor<string, []>("op_1094_pad_type_0"), val = tensor<string, []>("valid")];
            tensor<int32, [2]> var_1094_strides_0 = const()[name = tensor<string, []>("op_1094_strides_0"), val = tensor<int32, [2]>([1, 1])];
            tensor<int32, [4]> var_1094_pad_0 = const()[name = tensor<string, []>("op_1094_pad_0"), val = tensor<int32, [4]>([0, 0, 0, 0])];
            tensor<int32, [2]> var_1094_dilations_0 = const()[name = tensor<string, []>("op_1094_dilations_0"), val = tensor<int32, [2]>([1, 1])];
            tensor<int32, []> var_1094_groups_0 = const()[name = tensor<string, []>("op_1094_groups_0"), val = tensor<int32, []>(1)];
            tensor<fp16, [12, 64, 1, 1]> model_model_23_cv3_2_2_weight_to_fp16 = const()[name = tensor<string, []>("model_model_23_cv3_2_2_weight_to_fp16"), val = tensor<fp16, [12, 64, 1, 1]>(BLOBFILE(path = tensor<string, []>("@model_path/weights/weight.bin"), offset = tensor<uint64, []>(5178624)))];
            tensor<fp16, [12]> model_model_23_cv3_2_2_bias_to_fp16 = const()[name = tensor<string, []>("model_model_23_cv3_2_2_bias_to_fp16"), val = tensor<fp16, [12]>(BLOBFILE(path = tensor<string, []>("@model_path/weights/weight.bin"), offset = tensor<uint64, []>(5180224)))];
            tensor<fp16, [1, 12, 20, 20]> var_1094_cast_fp16 = conv(bias = model_model_23_cv3_2_2_bias_to_fp16, dilations = var_1094_dilations_0, groups = var_1094_groups_0, pad = var_1094_pad_0, pad_type = var_1094_pad_type_0, strides = var_1094_strides_0, weight = model_model_23_cv3_2_2_weight_to_fp16, x = input_315_cast_fp16)[name = tensor<string, []>("op_1094_cast_fp16")];
            tensor<int32, [3]> var_1095 = const()[name = tensor<string, []>("op_1095"), val = tensor<int32, [3]>([1, 12, -1])];
            tensor<fp16, [1, 12, 400]> var_1096_cast_fp16 = reshape(shape = var_1095, x = var_1094_cast_fp16)[name = tensor<string, []>("op_1096_cast_fp16")];
            tensor<bool, []> var_1098_interleave_0 = const()[name = tensor<string, []>("op_1098_interleave_0"), val = tensor<bool, []>(false)];
            tensor<fp16, [1, 12, 8400]> var_1098_cast_fp16 = concat(axis = var_9, interleave = var_1098_interleave_0, values = (var_992_cast_fp16, var_1044_cast_fp16, var_1096_cast_fp16))[name = tensor<string, []>("op_1098_cast_fp16")];
            tensor<int32, [4]> var_1102 = const()[name = tensor<string, []>("op_1102"), val = tensor<int32, [4]>([1, 4, 16, 8400])];
            tensor<fp16, [1, 4, 16, 8400]> var_1103_cast_fp16 = reshape(shape = var_1102, x = x_cast_fp16)[name = tensor<string, []>("op_1103_cast_fp16")];
            tensor<int32, [4]> var_1104_perm_0 = const()[name = tensor<string, []>("op_1104_perm_0"), val = tensor<int32, [4]>([0, 2, 1, 3])];
            tensor<fp16, [1, 16, 4, 8400]> var_1104_cast_fp16 = transpose(perm = var_1104_perm_0, x = var_1103_cast_fp16)[name = tensor<string, []>("transpose_1")];
            tensor<fp16, [1, 16, 4, 8400]> input_317_cast_fp16 = softmax(axis = var_21, x = var_1104_cast_fp16)[name = tensor<string, []>("input_317_cast_fp16")];
            tensor<string, []> var_1111_pad_type_0 = const()[name = tensor<string, []>("op_1111_pad_type_0"), val = tensor<string, []>("valid")];
            tensor<int32, [2]> var_1111_strides_0 = const()[name = tensor<string, []>("op_1111_strides_0"), val = tensor<int32, [2]>([1, 1])];
            tensor<int32, [4]> var_1111_pad_0 = const()[name = tensor<string, []>("op_1111_pad_0"), val = tensor<int32, [4]>([0, 0, 0, 0])];
            tensor<int32, [2]> var_1111_dilations_0 = const()[name = tensor<string, []>("op_1111_dilations_0"), val = tensor<int32, [2]>([1, 1])];
            tensor<int32, []> var_1111_groups_0 = const()[name = tensor<string, []>("op_1111_groups_0"), val = tensor<int32, []>(1)];
            tensor<fp16, [1, 16, 1, 1]> model_model_23_dfl_conv_weight_to_fp16 = const()[name = tensor<string, []>("model_model_23_dfl_conv_weight_to_fp16"), val = tensor<fp16, [1, 16, 1, 1]>(BLOBFILE(path = tensor<string, []>("@model_path/weights/weight.bin"), offset = tensor<uint64, []>(5180352)))];
            tensor<fp16, [1, 1, 4, 8400]> var_1111_cast_fp16 = conv(dilations = var_1111_dilations_0, groups = var_1111_groups_0, pad = var_1111_pad_0, pad_type = var_1111_pad_type_0, strides = var_1111_strides_0, weight = model_model_23_dfl_conv_weight_to_fp16, x = input_317_cast_fp16)[name = tensor<string, []>("op_1111_cast_fp16")];
            tensor<int32, [3]> var_1112 = const()[name = tensor<string, []>("op_1112"), val = tensor<int32, [3]>([1, 4, 8400])];
            tensor<fp16, [1, 4, 8400]> distance_cast_fp16 = reshape(shape = var_1112, x = var_1111_cast_fp16)[name = tensor<string, []>("distance_cast_fp16")];
            tensor<int32, [2]> var_1115_split_sizes_0 = const()[name = tensor<string, []>("op_1115_split_sizes_0"), val = tensor<int32, [2]>([2, 2])];
            tensor<int32, []> var_1115_axis_0 = const()[name = tensor<string, []>("op_1115_axis_0"), val = tensor<int32, []>(1)];
            tensor<fp16, [1, 2, 8400]> var_1115_cast_fp16_0, tensor<fp16, [1, 2, 8400]> var_1115_cast_fp16_1 = split(axis = var_1115_axis_0, split_sizes = var_1115_split_sizes_0, x = distance_cast_fp16)[name = tensor<string, []>("op_1115_cast_fp16")];
            tensor<fp16, [1, 2, 8400]> anchor_points_to_fp16 = const()[name = tensor<string, []>("anchor_points_to_fp16"), val = tensor<fp16, [1, 2, 8400]>(BLOBFILE(path = tensor<string, []>("@model_path/weights/weight.bin"), offset = tensor<uint64, []>(5180480)))];
            tensor<fp16, [1, 2, 8400]> x1y1_cast_fp16 = sub(x = anchor_points_to_fp16, y = var_1115_cast_fp16_0)[name = tensor<string, []>("x1y1_cast_fp16")];
            tensor<fp16, [1, 2, 8400]> x2y2_cast_fp16 = add(x = anchor_points_to_fp16, y = var_1115_cast_fp16_1)[name = tensor<string, []>("x2y2_cast_fp16")];
            tensor<fp16, [1, 2, 8400]> var_1119_cast_fp16 = add(x = x1y1_cast_fp16, y = x2y2_cast_fp16)[name = tensor<string, []>("op_1119_cast_fp16")];
            tensor<fp16, []> _inversed_c_xy_y_0_to_fp16 = const()[name = tensor<string, []>("_inversed_c_xy_y_0_to_fp16"), val = tensor<fp16, []>(0x1p-1)];
            tensor<fp16, [1, 2, 8400]> _inversed_c_xy_cast_fp16 = mul(x = var_1119_cast_fp16, y = _inversed_c_xy_y_0_to_fp16)[name = tensor<string, []>("_inversed_c_xy_cast_fp16")];
            tensor<fp16, [1, 2, 8400]> wh_cast_fp16 = sub(x = x2y2_cast_fp16, y = x1y1_cast_fp16)[name = tensor<string, []>("wh_cast_fp16")];
            tensor<bool, []> var_1124_interleave_0 = const()[name = tensor<string, []>("op_1124_interleave_0"), val = tensor<bool, []>(false)];
            tensor<fp16, [1, 4, 8400]> var_1124_cast_fp16 = concat(axis = var_21, interleave = var_1124_interleave_0, values = (_inversed_c_xy_cast_fp16, wh_cast_fp16))[name = tensor<string, []>("op_1124_cast_fp16")];
            tensor<fp16, [1, 8400]> var_7_to_fp16 = const()[name = tensor<string, []>("op_7_to_fp16"), val = tensor<fp16, [1, 8400]>(BLOBFILE(path = tensor<string, []>("@model_path/weights/weight.bin"), offset = tensor<uint64, []>(5214144)))];
            tensor<fp16, [1, 4, 8400]> dbox_cast_fp16 = mul(x = var_1124_cast_fp16, y = var_7_to_fp16)[name = tensor<string, []>("dbox_cast_fp16")];
            tensor<fp16, [1, 12, 8400]> var_1126_cast_fp16 = sigmoid(x = var_1098_cast_fp16)[name = tensor<string, []>("op_1126_cast_fp16")];
            tensor<bool, []> var_1128_interleave_0 = const()[name = tensor<string, []>("op_1128_interleave_0"), val = tensor<bool, []>(false)];
            tensor<fp16, [1, 16, 8400]> var_1128_cast_fp16 = concat(axis = var_21, interleave = var_1128_interleave_0, values = (dbox_cast_fp16, var_1126_cast_fp16))[name = tensor<string, []>("op_1128_cast_fp16")];
            tensor<int32, [3]> var_1131_begin_0 = const()[name = tensor<string, []>("op_1131_begin_0"), val = tensor<int32, [3]>([0, 0, 0])];
            tensor<int32, [3]> var_1131_end_0 = const()[name = tensor<string, []>("op_1131_end_0"), val = tensor<int32, [3]>([1, 16, 8400])];
            tensor<bool, [3]> var_1131_end_mask_0 = const()[name = tensor<string, []>("op_1131_end_mask_0"), val = tensor<bool, [3]>([false, true, true])];
            tensor<bool, [3]> var_1131_squeeze_mask_0 = const()[name = tensor<string, []>("op_1131_squeeze_mask_0"), val = tensor<bool, [3]>([true, false, false])];
            tensor<fp16, [16, 8400]> var_1131_cast_fp16 = slice_by_index(begin = var_1131_begin_0, end = var_1131_end_0, end_mask = var_1131_end_mask_0, squeeze_mask = var_1131_squeeze_mask_0, x = var_1128_cast_fp16)[name = tensor<string, []>("op_1131_cast_fp16")];
            tensor<int32, [2]> var_1134_perm_0 = const()[name = tensor<string, []>("op_1134_perm_0"), val = tensor<int32, [2]>([1, 0])];
            tensor<int32, [2]> var_1137 = const()[name = tensor<string, []>("op_1137"), val = tensor<int32, [2]>([4, 12])];
            tensor<int32, []> var_1139_axis_0 = const()[name = tensor<string, []>("op_1139_axis_0"), val = tensor<int32, []>(1)];
            tensor<fp16, [8400, 16]> var_1134_cast_fp16 = transpose(perm = var_1134_perm_0, x = var_1131_cast_fp16)[name = tensor<string, []>("transpose_0")];
            tensor<fp16, [8400, 4]> var_1139_cast_fp16_0, tensor<fp16, [8400, 12]> var_1139_cast_fp16_1 = split(axis = var_1139_axis_0, split_sizes = var_1137, x = var_1134_cast_fp16)[name = tensor<string, []>("op_1139_cast_fp16")];
            tensor<int32, [4]> var_1149_pad_0 = const()[name = tensor<string, []>("op_1149_pad_0"), val = tensor<int32, [4]>([0, 0, 0, 68])];
            tensor<string, []> var_1149_mode_0 = const()[name = tensor<string, []>("op_1149_mode_0"), val = tensor<string, []>("constant")];
            tensor<fp16, []> const_7_to_fp16 = const()[name = tensor<string, []>("const_7_to_fp16"), val = tensor<fp16, []>(0x0p+0)];
            tensor<fp16, [8400, 80]> var_1149_cast_fp16 = pad(constant_val = const_7_to_fp16, mode = var_1149_mode_0, pad = var_1149_pad_0, x = var_1139_cast_fp16_1)[name = tensor<string, []>("op_1149_cast_fp16")];
            tensor<string, []> var_1149_cast_fp16_to_fp32_dtype_0 = const()[name = tensor<string, []>("op_1149_cast_fp16_to_fp32_dtype_0"), val = tensor<string, []>("fp32")];
            tensor<fp16, []> var_1150_to_fp16 = const()[name = tensor<string, []>("op_1150_to_fp16"), val = tensor<fp16, []>(0x1.998p-10)];
            tensor<fp16, [8400, 4]> var_1151_cast_fp16 = mul(x = var_1139_cast_fp16_0, y = var_1150_to_fp16)[name = tensor<string, []>("op_1151_cast_fp16")];
            tensor<string, []> var_1151_cast_fp16_to_fp32_dtype_0 = const()[name = tensor<string, []>("op_1151_cast_fp16_to_fp32_dtype_0"), val = tensor<string, []>("fp32")];
            tensor<fp32, [8400, 4]> var_1151 = cast(dtype = var_1151_cast_fp16_to_fp32_dtype_0, x = var_1151_cast_fp16)[name = tensor<string, []>("cast_13")];
            tensor<fp32, [8400, 80]> var_1149 = cast(dtype = var_1149_cast_fp16_to_fp32_dtype_0, x = var_1149_cast_fp16)[name = tensor<string, []>("cast_14")];
        } -> (var_1149, var_1151);
}